PolicyDistillation/teacher.pt (torch, 99531 bytes, 24 tensors)

weight f4 [50, 4]
-0.79918486 0.034110416 0.23771302 0.4146198 -0.59012187 0.008724811 0.02423771 -0.1523308
0.16918743 -0.09046656 -0.35438943 0.32432145 0.6109231 0.4430461 0.25698358 -0.4203054
-0.052419808 0.13997155 0.442923 -0.07393699 0.15777516 -0.72442144 -0.8323508 -0.7411255
-0.09638923 -0.51380765 0.5115267 0.027206229 0.3396335 0.37702298 0.22872797 0.17895736
0.47683042 0.25851607 0.6958578 0.68518883 -0.029589176 0.32536015 0.44232395 -0.25849256
0.20580225 -0.023659376 -0.32195112 0.24137379 0.26147208 0.02958388 0.7157273 -0.46154422
-0.41794533 -0.12331486 -0.15026182 0.24741036 0.2780781 -0.36287943 0.23440203 0.32959366
-0.3535194 -0.25454876 -0.040578082 -0.0582623 0.41915613 0.06751124 -1.1558944 -0.6138271
0.020900086 -0.14801784 -0.74168915 -0.61727166 0.25266233 -0.41650313 0.43229258 -0.25020856
-0.15867361 0.16939549 0.9416976 0.30214518 0.6072717 -0.4805538 -0.39117312 -0.3625052
-0.20267552 -0.2507805 -0.16068214 -0.15512653 0.92095983 0.6479598 0.28245115 0.21446197
0.28155798 -0.41137528 -0.31195617 0.12778312 0.18691228 -0.1548772 -0.05324011 -0.037607968
0.14645813 0.5507642 -0.13752644 -0.4204174 -0.20512949 -0.013379935 0.42085704 -0.027712088
0.39029744 -0.042020094 0.3762069 -0.24231905 -0.3270891 0.3447277 0.63920295 0.7057786
-0.040200155 0.048724845 0.13921216 -0.20105061 -0.2153587 -0.28944993 -0.32728195 -0.46275848
0.2828677 0.11819803 -0.082071364 -0.41371134 0.088309065 0.40012857 -0.14034103 0.28508276
-0.39082226 0.29103822 0.8074673 -0.37716028 -0.685345 -0.30103606 0.9266845 0.45049515
-0.16072156 0.18757404 -0.09620839 -0.15375331 -0.22365618 -0.23634838 0.48081073 0.061130676
-0.26480734 0.39297283 -0.15195982 0.2546306 0.24604066 0.06853224 0.52374625 0.086850494
0.16503465 0.2294584 0.41980442 0.08086841 0.30237398 0.61587393 -0.12672034 0.0010641825
0.1020323 0.30163166 1.0808582 0.52923346 -0.3812071 -0.4345341 0.31941134 0.539233
-0.043492623 0.12872966 -0.36652076 -0.21981551 -0.24768984 0.35985667 0.024789913 0.022949632
0.24789208 -0.23932715 -0.75587744 -0.5725653 -0.4033235 -0.055910036 -1.2119503 -0.63849974
0.22245623 0.043555792 -0.46197817 0.08186442 0.13589916 0.20753369 -0.5112831 -0.39989832
-0.22570431 0.12424222 0.18558367 0.45792505 -0.16299827 -0.15309265 0.16089144 -0.1508467
00000000: 6197 4cbf 5db7 0b3d 0b6b 733e 0c49 d43e
00000010: 3a12 17bf 82f2 0e3c 298e c63c 9bfc 1bbe
00000020: 783f 2d3e 8846 b9bd 8872 b5be 760d a63e
00000030: 7565 1c3f f0d6 e23e 5a93 833e 4532 d7be
00000040: 27b6 56bd b454 0f3e cec6 e23e 476c 97bd
00000050: d08f 213e af73 39bf f114 55bf 67ba 3dbf
00000060: b767 c5bd e688 03bf 6af3 023f 99df de3c
00000070: 71e4 ad3e 2809 c13e aa37 6a3e 9940 373e
00000080: 1e23 f43e 385c 843e bd23 323f 8968 2f3f
00000090: 0065 f2bc 9b95 a63e 4978 e23e 2359 84be
000000a0: d3bd 523e 4fd1 c1bc c7d6 a4be b12a 773e
000000b0: abdf 853e e559 f23c e839 373f 864f ecbe
000000c0: eefc d5be 808c fcbd 3cde 19be 2459 7d3e
000000d0: 4160 8e3e 55cb b9be 1607 703e 80c0 a83e
000000e0: 7f00 b5be 3754 82be 3435 26bd 73a4 6ebd
000000f0: a29b d63e 5543 8a3d 59f4 93bf c623 1dbf
00000100: a836 ab3c fd91 17be 57df 3dbf 8405 1ebf
00000110: f55c 813e e63f d5be 7455 dd3e 561b 80be
00000120: 567b 22be 0376 2d3e 1813 713f c6b2 9a3e
00000130: 2876 1b3f 260b f6be d847 c8be 489a b9be
00000140: 2c8a 4fbe 4d66 80be dc89 24be 7dd9 1ebe
00000150: 06c4 6b3f b2e0 253f 709d 903e eb9b 5b3e
00000160: 5e28 903e c89f d2be b8b8 9fbe 94d9 023e
00000170: ef65 3f3e 2198 1ebe 4d12 5abd d00a 1abd
00000180: 1ff9 153e e2fe 0c3f bbd3 0cbe f340 d7be
00000190: 770d 52be 8437 5bbc 937a d73e 7604 e3bc
000001a0: 11d5 c73e 431d 2cbd 319e c03e 7c22 78be
000001b0: 3978 a7be 2680 b03e cea2 233f e8ad 343f
000001c0: eba8 24bd b493 473d a28d 0e3e 36e0 4dbe
000001d0: fe86 5cbe c832 94be 8091 a7be aeee ecbe
000001e0: 09d4 903e cf11 f23d 0815 a8bd f9d1 d3be
000001f0: 62db b43d a7dd cc3e 8fb5 0fbe 5ef6 913e
00000200: db19 c8be f602 953e 2db6 4e3f 271b c1be
00000210: c572 2fbf 6621 9abe 323b 6d3f 4da7 e63e
00000220: 3194 24be 6913 403e e808 c5bd 8271 1dbe
00000230: 2006 65be 4f05 72be d32c f63e 2964 7a3d
00000240: d494 87be bc33 c93e 5b9b 1bbe f15e 823e
00000250: 15f2 7b3e a25a 8c3d 3c14 063f acde b13d
00000260: d8fe 283e 25f7 6a3e 9bf0 d63e 569e a53d
00000270: c3d0 9a3e eaa9 1d3f fac2 01be 0a7c 8b3a
00000280: 4ff6 d03d 776f 9a3e 9059 8a3f d87b 073f
00000290: 942d c3be 417b debe e289 a33e 2d0b 0a3f
000002a0: 5225 32bd b5d1 033e 9ca8 bbbe 5117 61be
000002b0: 68a2 7dbe 223f b83e 3714 cb3c de00 bc3c
000002c0: 6cd7 7d3e 2d12 75be 2f81 41bf a493 12bf
000002d0: 6b80 cebe ec01 65bd 3021 9bbf b874 23bf
000002e0: 91cb 633e 8f67 323d 6788 ecbe 88a8 a73d
000002f0: 2629 0b3e b683 543e 73e3 02bf 79bf ccbe
00000300: 081f 67be b472 fe3d a509 3e3e 2775 ea3e
00000310: 05e9 26be 52c4 1cbe bac0 243e 8f77 1abe

bias f4 [50]
-0.1838562 0.45340276 0.37312987 -0.074664876 0.2075351 -0.26661012 -0.5032387 0.44486758
-0.27289733 0.2848786 0.5344751 0.37651148 0.6854575 0.306534 -0.40993935 0.119944625
-0.2038541 0.29222125 0.23560464 0.44868818 0.5005189 -0.25498623 0.31710306 -0.3516378
-0.24084172 0.42732075 0.6660514 -0.14492176 0.46216252 -0.25280145 0.53600305 0.7128386
0.2667059 -0.4580132 0.61190325 0.63822246 -0.7609776 0.40255257 0.71731645 -0.29739153
-0.28236258 0.17344256 0.740916 0.43836784 -0.28034016 -0.05016692 -0.48481697 -0.329714
0.36578158 0.28352606
00000000: cd44 3cbe 6824 e83e e10a bf3e e6e9 98bd
00000010: 1584 543e 1f81 88be 40d4 00bf afc5 e33e
00000020: 33b9 8bbe 9cdb 913e 5cd3 083f 1dc6 c03e
00000030: 257a 2f3f 06f2 9c3e 92e3 d1be 87a5 f53d
00000040: 21bf 50be 069e 953e 5842 713e 75ba e53e
00000050: 0222 003f 8e8d 82be 555b a23e df09 b4be
00000060: 369f 76be c9c9 da3e 5882 2a3f 5f66 14be
00000070: 91a0 ec3e 316f 81be 7f37 093f 977c 363f
00000080: ad8d 883e b580 eabe b1a5 1c3f 8c62 233f
00000090: 6ecf 42bf 5f1b ce3e 0da2 373f b443 98be
000000a0: d491 90be ed9a 313e acac 3d3f c071 e03e
000000b0: bf88 8fbe d47b 4dbd ee39 f8be 46d0 a8be
000000c0: b947 bb3e 542a 913e

weight f4 [100, 50]
-0.14453179 0.03509212 0.1345281 0.08673739 0.026158148 -0.56933963 -0.17739351 0.17997228
-0.14230129 0.20364556 0.19408642 0.20170492 0.3056784 -0.024479205 -0.10751568 0.016476158
-0.32453117 0.0910649 -0.2226175 0.14571679 0.07170071 -0.2672981 0.070739426 -0.11939018
0.13565983 0.1283931 0.24663928 -0.22285433 0.10507292 -0.37463847 -0.06070843 0.21734492
0.12310744 -0.05847188 0.04784759 0.2606045 -0.22956258 0.0836021 0.1796709 -0.2909514
-0.34760115 -0.048832346 0.0784504 0.24606198 -0.40201926 -0.10218595 -0.09743953 -0.10708828
0.151856 0.19065425 0.2156857 0.07410619 0.12207963 -0.0799215 0.1813014 0.3571654
0.055571634 0.20351893 0.2619599 -0.058961492 0.017459052 -0.117916904 0.10879211 0.008171667
0.28396562 -0.28583083 0.25533697 -0.22270569 0.3280414 -1.0391285 -0.061520513 0.30195796
-0.21670322 0.07947249 0.104802564 -0.0407882 -0.20383327 0.3131907 -0.10530974 0.051207826
-0.12266621 0.075252235 0.03914138 0.23101693 -0.27122974 0.18633749 0.12416851 0.11060072
-0.06238294 0.22968374 0.5297828 0.021593371 -0.3920342 0.16067605 -0.08020819 0.17149526
-0.19280486 -0.044777308 0.22300953 0.006772521 -0.11708374 0.25044042 0.25191224 -0.14381197
0.13184561 -0.42604375 -0.41787136 0.0982457 -0.38513532 0.24937275 0.31441158 0.08248592
0.103986345 -0.0024565388 -0.27955475 -0.10361496 -0.13263293 0.108668774 -0.057840716 -0.06788789
0.24120586 -0.31091604 0.20260677 -0.19191718 0.16891646 0.079871796 0.07182848 -0.42801648
0.17798683 -0.28521782 0.046454385 0.08832317 0.24726646 -0.33765376 0.24587578 0.25350586
-0.22076583 0.33287516 0.19769488 -0.23797247 -0.6488961 -0.08028723 0.202725 0.085586324
-0.23870066 -0.25826564 -0.3094349 -0.034736082 -0.06544369 0.29057074 -0.081085145 0.14663643
0.20643796 0.12789744 0.06771523 -0.672285 -0.097038366 0.16015737 -0.15018174 0.06599911
0.17412463 0.10991763 0.24596287 0.18811752 -0.25263917 -0.066760495 -0.32089275 0.13424106
-0.043987945 -0.07888311 0.22517626 -0.41500202 0.10426346 -0.32154322 -0.062085193 0.32594344
0.0826041 -0.13903159 0.077753596 -0.32709026 0.1750011 0.31582436 0.14718978 -0.11184717
0.21969657 0.07835312 -0.16575766 0.20474814 0.25993663 -0.047972687 -0.5242359 0.17667314
0.18464781 0.17924593 -0.24221294 -0.26889578 -0.11147434 -0.09564706 -0.112518154 0.03523863
-0.24990107 0.061929867 0.12431626 -0.002171211 0.12253774 -0.57695156 -0.13811754 0.20928963
-0.18371789 0.045298547 0.20800956 0.14473884 0.18104634 0.09888074 -0.09810042 -0.1346574
-0.19186723 0.18008317 -0.16257209 -0.022175003 0.26561624 -0.45390975 0.0984128 -0.2694226
-0.021076025 0.24489158 0.22328159 -0.37143174 0.10145916 -0.34709644 -0.047474716 0.071321845
0.26102775 -0.12850323 0.29248065 0.32787254 -0.31748527 0.22574584 0.35589916 -0.2749487
-0.5353212 0.1674405 0.04017589 0.25187954 -0.2513793 -0.24673192 -0.18361425 -0.23004407
0.123735085 0.08444092 0.10417018 -0.12218345 -0.040196672 -0.04129481 0.0038670641 0.7213805
00000000: 2400 14be c1bc 0f3d bcc1 093e 5fa3 b13d
00000010: 9d49 d63c 3ec0 11bf a5a6 35be a74a 383e
00000020: 6eb7 11be 7688 503e 97be 463e bc8b 4e3e
00000030: e181 9c3e 9d88 c8bc 2e31 dcbd 02f9 863c
00000040: f328 a6be 3c80 ba3d d8f5 63be c836 153e
00000050: d2d7 923d 4cdb 88be d5df 903d d782 f4bd
00000060: 69ea 0a3e 7b79 033e 028f 7c3e ed33 64be
00000070: 7930 d73d 9dd0 bfbe 67a9 78bd ab8f 5e3e
00000080: c11f fc3d 3680 6fbd d6fb 433d f46d 853e
00000090: 7412 6bbe 9437 ab3d a6fb 373e 95f7 94be
000000a0: c7f8 b1be 6d04 48bd 9aaa a03d acf7 7b3e
000000b0: 78d5 cdbe de46 d1bd 608e c7bd 1a51 dbbd
000000c0: 2480 1b3e de3a 433e b6dc 5c3e fcc4 973d
000000d0: e304 fa3d e2ad a3bd 13a7 393e 62de b63e
000000e0: 159f 633d 4467 503e 9c1f 863e 9b81 71bd
000000f0: 4906 8f3c 6b7e f1bd 66ce de3d 75e2 053c
00000100: f163 913e 6b58 92be 87bb 823e f60c 64be
00000110: 0bf5 a73e 2a02 85bf effc 7bbd 3c9a 9a3e
00000120: 73e7 5dbe 79c2 a23d baa2 d63d 8711 27bd
00000130: abb9 50be 885a a03e a2ac d7bd 4cbf 513d
00000140: 6c38 fbbd d81d 9a3d b652 203d b48f 6c3e
00000150: a0de 8abe 41cf 3e3e 0f4c fe3d a182 e23d
00000160: 4185 7fbd 3732 6b3e d89f 073f 95e4 b03c
00000170: b5b8 c8be 4388 243e 3144 a4bd 749c 2f3e
00000180: a36e 45be 6968 37bd 9c5c 643e 06ec dd3b
00000190: 9ac9 efbd ba39 803e a4fa 803e 7243 13be
000001a0: 8902 073e 6822 dabe 3cf3 d5be 0b35 c93d
000001b0: 7530 c5be 925b 7f3e 8efa a03e 61ee a83d
000001c0: cbf6 d43d e2fd 20bb cd21 8fbe 1534 d4bd
000001d0: edd0 07be bc8d de3d 63ea 6cbd ce08 8bbd
000001e0: abfe 763e 6330 9fbe 2678 4f3e f085 44be
000001f0: 70f8 2c3e d393 a33d cf1a 933d fa24 dbbe
00000200: 2e42 363e 1208 92be f446 3e3d c7e2 b43d
00000210: 6b33 7d3e f4e0 acbe dcc6 7b3e 85cb 813e
00000220: 7010 62be 9d6e aa3e 8770 4a3e 0eaf 73be
00000230: 0e1e 26bf a26d a4bd 2497 4f3e e247 af3d
00000240: f26d 74be 653b 84be 406e 9ebe 6c47 0ebd
00000250: 5707 86bd b0c5 943e f80f a6bd dc27 163e
00000260: 7964 533e 8cf7 023e 48ae 8a3d df1a 2cbf
00000270: 0dbc c6bd 4b00 243e 3ec9 19be 8b2a 873d
00000280: ba4d 323e 7f1c e13d b1dd 7b3e e1a1 403e
00000290: ec59 81be bab9 88bd 0e4c a4be 7d76 093e
000002a0: b42c 34bd 788d a1bd 9b94 663e 257b d4be
000002b0: 1588 d53d 50a1 a4be 0b4d 7ebd 0fe2 a63e
000002c0: 572c a93d 4c5e 0ebe 473d 9f3d 6078 a7be
000002d0: 7d33 333e bbb3 a13e ebb8 163e 2110 e5bd
000002e0: 23f8 603e 9a77 a03d 60bc 29be 7fa9 513e
000002f0: 6a16 853e 027f 44bd 5334 06bf cee9 343e
00000300: 5114 3d3e 3f8c 373e ab06 78be b5ac 89be
00000310: a94c e4bd 9be2 c3bd eb6f e6bd 6256 103d
00000320: 11e6 7fbe 2caa 7d3d 8699 fe3d e04a 0ebb
00000330: 11f5 fa3d 19b3 13bf af6e 0dbe 0550 563e
00000340: 8b20 3cbe f88a 393d 7500 553e 6b36 143e
00000350: 3664 393e fc81 ca3d dfe8 c8bd a1e3 09be
00000360: d878 44be b967 383e 4c79 26be 5aa8 b5bc
00000370: dafe 873e dc66 e8be a68c c93d c2f1 89be
00000380: a1a7 acbc dcc4 7a3e eea3 643e 4d2c bebe
00000390: d2c9 cf3d a0b6 b1be d974 42bd 3011 923d
000003a0: 6ea5 853e 5a96 03be 06c0 953e e9de a73e
000003b0: 6e8d a2be eb29 673e 6a38 b63e 13c6 8cbe
000003c0: cf0a 09bf 8675 2b3e 798f 243d 5bf6 803e
000003d0: cab4 80be 4ba7 7cbe 6005 3cbe ac90 6bbe
000003e0: d268 fd3d 5cef ac3d 2d57 d53d 513b fabd
000003f0: 44a5 24bd bf24 29bd 926e 7d3b 64ac 383f

bias f4 [100]
0.20295498 -0.12661485 0.17457476 0.05772312 0.17252369 -0.086166486 0.23997416 0.26478004
0.28006583 -0.120240375 0.2196981 -0.0042450945 0.32302094 0.2897239 0.27026787 0.22174801
-0.097406626 0.28738147 0.23140244 -0.23078944 0.08583462 0.10096428 0.22764285 -0.25968626
0.19258553 -0.31624797 0.26636034 0.072387114 0.060580183 0.30367336 0.17037092 0.08076339
0.060294513 -0.25455847 -0.17319 0.0687614 -0.0035510904 0.16506816 -0.2623952 0.22080234
-0.004749972 0.18767606 0.31046128 0.13475674 -0.029983686 0.24124892 0.09092285 0.24134058
0.107725926 0.13641405 0.18840909 0.30010784 0.011585832 0.27977365 0.37873667 -0.06060523
-0.330695 0.03712072 0.15234986 -0.030056942 0.25807047 -0.05125487 0.18634544 0.042502966
0.07094085 0.3135942 0.15667804 0.07736796 0.1864613 0.05503036 0.2641754 0.10727816
-0.25994602 0.28125757 0.1940015 0.3136604 0.17134668 0.0679449 0.31359926 -0.11203045
0.19114864 0.27153152 -0.072007425 0.12762202 0.2893402 0.14221863 0.13111141 0.27225706
0.19434196 -0.036441043 0.3166654 -0.17993276 0.014682281 0.20922495 0.09341436 0.24272427
0.09249839 0.22387965 0.2865019 0.092652775
00000000: 6ed3 4f3e 53a7 01be bac3 323e 146f 6c3d
00000010: 0daa 303e 0e78 b0bd c9bb 753e 4091 873e
00000020: ca64 8f3e 9640 f6bd 8af8 603e 6f1a 8bbb
00000030: 0063 a53e b156 943e 8d60 8a3e e911 633e
00000040: 207d c7bd aa23 933e c3f4 6c3e 1154 6cbe
00000050: 10ca af3d 5cc6 ce3d 351b 693e 99f5 84be
00000060: 2435 453e 41eb a1be 6260 883e b23f 943d
00000070: ed22 783d 137b 9b3e b775 2e3e 4767 a53d
00000080: 61f7 763d 7d55 82be b858 31be c7d2 8c3d
00000090: 69b9 68bb a107 293e aa58 86be 021a 623e
000000a0: a7a5 9bbb 272e 403e c8f4 9e3e acfd 093e
000000b0: 59a0 f5bc f509 773e c235 ba3d fc21 773e
000000c0: 699f dc3d 20b0 0b3e 50ee 403e bca7 993e
000000d0: 80d2 3d3c 7e3e 8f3e c6e9 c13e 313d 78bd
000000e0: db50 a9be e50b 183d 9a01 1c3e fa39 f6bc
000000f0: d021 843e a0f0 51bd 57d1 3e3e 9717 2e3d
00000100: 7049 913d 6b8f a03e 3570 203e 1873 9e3d
00000110: b6ef 3e3e 8467 613d ff41 873e a7b4 db3d
00000120: a517 85be fe00 903e 54a8 463e 1998 a03e
00000130: 8175 2f3e b226 8b3d 1590 a03e 3870 e5bd
00000140: 78bc 433e 2e06 8b3e a178 93bd 59af 023e
00000150: 6624 943e c3a1 113e 1242 063e 4765 8b3e
00000160: 9401 473e 3443 15bd f821 a23e 4b40 38be
00000170: f38d 703c 113f 563e 0750 bf3d b68c 783e
00000180: cc6f bd3d b540 653e 61b0 923e bdc0 bd3d

weight f4 [2, 100]
0.26455995 -0.3277674 0.34400976 0.3470934 0.3504205 -0.336236 0.34037945 0.3468108
0.42790848 -0.33308434 0.32982576 -0.75685203 0.28424817 0.26570156 0.28742546 0.43662882
-0.35972306 0.27920923 -0.16613917 -0.28370407 0.3302799 0.3360958 0.28434253 -0.30909473
0.2680947 -0.22906688 0.3483538 0.37346643 0.35971907 0.3911655 0.33089796 0.34146726
-0.37448525 -0.3003224 -0.34089148 -0.2870114 0.0017751018 0.33641744 -0.2488079 0.36875698
-0.61438346 0.27307513 0.2689105 0.32812947 -0.42945853 0.33996138 -0.11617553 0.3386003
0.35200393 0.2982451 0.30534157 0.2681982 -0.6967973 0.3344507 -0.57023865 -0.78574735
-0.28780487 -0.17033657 0.34952122 -0.10941266 -0.4900295 -0.24239205 -0.5978144 -0.5463929
-0.3611769 0.023458537 0.2969595 0.332294 0.2557257 -0.6970944 0.34404093 0.32468283
-0.3479432 0.39891976 0.23280014 0.21668093 0.35708633 -0.3085021 0.3920616 -0.39086893
0.31208965 -0.14435929 -0.2337978 0.2037357 0.24128452 0.34231162 0.29542634 0.2732303
0.21928988 -0.32427728 0.26473972 -0.34976268 0.10837833 0.38161433 0.34709612 0.24109766
0.32929283 0.25849432 -0.18107636 0.32309842 0.28564888 -0.46976805 0.35049674 0.33652484
0.3427046 -0.52508384 0.26052672 0.23729846 0.4680949 -0.23681067 0.32692027 -0.43049178
0.40419576 0.35644808 0.3721127 0.39546666 -0.62135196 0.29656482 0.17750792 -0.15923107
0.38885224 0.28831533 0.2758998 -0.2877452 0.19027342 -0.29817334 0.26972783 0.39128533
0.3902175 0.3099548 0.39705092 0.417661 -0.24651454 -0.34324184 -0.22381641 -0.046070773
-0.31002393 0.2817282 -0.2296985 0.432944 -0.061108805 0.33434466 0.35746083 0.37495062
-0.41845176 0.2883509 -0.46314338 0.34946954 0.3013658 0.22459887 0.14128953 0.21800901
-0.31223398 0.44904637 -0.016928157 -0.21417607 -0.22328088 -0.49821046 0.25414318 -0.40322873
-0.15830645 -0.59826815 -0.058733508 -0.5354794 -0.34573165 -0.55437034 0.12884675 0.46003097
0.30592668 -0.55786824 0.4286256 0.3347824 -0.35213253 0.3088677 0.10847014 0.25812903
0.2929437 -0.6113638 0.433695 -0.4413505 0.18384084 -0.56666964 -0.41233134 0.06700246
0.17906223 0.17651221 0.31057367 0.24046001 0.22147718 -0.25401956 0.21873963 -0.31145716
-0.37833053 0.41398126 0.24446492 0.3332283 0.37293398 0.32934767 -0.5851695 0.38487887
00000000: 6774 873e 21d1 a7be 0c22 b03e 3ab6 b13e
00000010: 516a b33e 2027 acbe 3746 ae3e 2f91 b13e
00000020: d216 db3e 088a aabe ecde a83e 0ec1 41bf
00000030: fa88 913e 090a 883e 6e29 933e d08d df3e
00000040: 9f2d b8be 83f4 8e3e 6320 2abe a941 91be
00000050: 721a a93e c014 ac3e 5895 913e aa41 9ebe
00000060: b543 893e 8290 6abe 6e5b b23e fe36 bf3e
00000070: 192d b83e d846 c83e 756b a93e ccd4 ae3e
00000080: 88bc bfbe dcc3 99be 5489 aebe 29f3 92be
00000090: 88aa e83a e83e ac3e 80c7 7ebe b7cd bc3e
000000a0: 3c48 1dbf 81d0 8b3e a3ae 893e 9600 a83e
000000b0: fde1 dbbe 6b0f ae3e 70ed edbd 055d ad3e
000000c0: dc39 b43e 95b3 983e bb55 9c3e 4651 893e
000000d0: 4f61 32bf 1f3d ab3e 29fb 11bf bd26 49bf
000000e0: 295b 93be b66c 2ebe 72f4 b23e bf13 e0bd
000000f0: 26e5 fabe 9f35 78be 5d0a 19bf 68e0 0bbf
00000100: 2eec b8be 1e2c c03c 130b 983e 7022 aa3e
00000110: 7bee 823e c774 32bf 2226 b03e d43c a63e
00000120: 9c25 b2be 363f cc3e 2963 6e3e 9be1 5d3e
00000130: 05d4 b63e fdf3 9dbe 4cbc c83e f91f c8be
00000140: 37ca 9f3e ecd2 13be b168 6fbe 17a0 503e
00000150: 4a13 773e 7843 af3e 1f42 973e d8e4 8b3e
00000160: 878d 603e ac07 a6be f78b 873e 1814 b3be
00000170: 75f5 dd3d f462 c33e 95b6 b13e 4ee2 763e
00000180: 1299 a83e 5e59 843e 156c 39be 286d a53e
00000190: 9240 923e 7085 f0be 4f74 b33e fc4c ac3e
000001a0: fa76 af3e e56b 06bf c263 853e 5efe 723e
000001b0: 22aa ef3e 7f7e 72be 1862 a73e 6b69 dcbe
000001c0: bff2 ce3e 5d80 b63e 8e85 be3e 9b7a ca3e
000001d0: ec10 1fbf 58d7 973e a3c4 353e 780d 23be
000001e0: a417 c73e 119e 933e bd42 8d3e 5753 93be
000001f0: 09d7 423e 2daa 98be c419 8a3e 8d56 c83e
00000200: 97ca c73e 65b2 9e3e 424a cb3e aad7 d53e
00000210: 4f6e 7cbe 65bd afbe 2130 65be b5b4 3cbd
00000220: 75bb 9ebe ae3e 903e 1536 6bbe d6aa dd3e
00000230: 3a4d 7abd 392f ab3e 1b05 b73e 87f9 bf3e
00000240: 4f3f d6be bba2 933e 2121 edbe aced b23e
00000250: 9e4c 9a3e 3ffd 653e 34ae 103e c13d 5f3e
00000260: 22dd 9fbe 68e9 e53e ebac 8abc f950 5bbe
00000270: bea3 64be 7115 ffbe 0e1f 823e ff73 cebe
00000280: 161b 22be 1a28 19bf 8c92 70bd 2e15 09bf
00000290: bd03 b1be 37eb 0dbf 67f0 033e 2e89 eb3e
000002a0: 6ca2 9c3e 74d0 0ebf d174 db3e 9968 ab3e
000002b0: b74a b4be e823 9e3e 9825 de3d 7d29 843e
000002c0: b7fc 953e 5782 1cbf 450d de3e b1f8 e1be
000002d0: c640 3c3e 4311 11bf 181d d3be 9638 893d
000002e0: 175c 373e 9ebf 343e 8303 9f3e 263b 763e
000002f0: eaca 623e da0e 82be 48fd 5f3e 5077 9fbe
00000300: 8ab4 c1be 5af5 d33e 0355 7a3e e69c aa3e
00000310: 34f1 be3e 42a0 a83e abcd 15bf d80e c53e

bias f4 [2]
0.06295019 0.20214584
00000000: 07ec 803d 52ff 4e3e

exp_avg f4 [50, 4]
-0.08024133 -0.07234115 0.0015148415 0.03950013 -0.009448657 -0.003945326 -0.00854127 -0.045900047
-0.057189103 -0.0028743898 -0.0045274463 -0.028100904 0.03211732 0.025066586 0.0029472276 0.0032290427
-0.06791495 0.00079509005 0.00020817603 -0.004025497 -0.32921115 -0.42393523 -0.05912561 -0.053066917
-0.09091083 -0.064634286 0.0010374445 0.038977027 -0.21277525 -0.08578908 -0.011381864 -0.039493777
0.31272054 0.19186181 0.044177756 0.15015467 -0.07674255 -0.042150054 -0.0048509124 0.0008875417
-0.09632514 -0.014146825 -0.009926279 -0.052171834 -0.091951855 -0.050145566 -0.0059332144 -0.0056918967
-0.032705408 0.0021051818 -0.012917439 -0.07609794 -0.043598372 -9.917799e-05 -0.0032789328 -0.021660713
-0.1439409 -0.09889984 -0.00832482 -0.008646274 0.05557498 -0.014688707 -0.008474309 -0.01005537
-0.047188867 -0.03318939 -0.014814498 -0.06940967 -0.10792562 -0.04083731 -0.019496426 -0.08720373
0.038369365 0.050782982 0.023970712 0.094553016 -0.14973484 -0.1489786 -0.044783194 -0.14968513
-0.04073332 -0.02554228 -0.017338801 -0.0768155 0.4080165 0.33072108 0.047799386 0.064702325
-0.09476818 -0.028913196 -0.016743235 -0.07101508 0.06064838 0.014140772 0.00020798194 -0.0013896546
-0.01225251 -0.009682162 -0.0012406316 -0.00042462483 -0.037982542 0.006203257 -0.008631676 -0.05371688
-0.14192389 -0.04783404 -0.011845661 -0.05079051 0.08758185 0.15422754 0.053770505 0.16630533
-0.071064144 -0.037492402 -0.008146137 -0.017206581 -0.3016205 -0.2628392 -0.028603515 -0.028908687
-0.027456654 -0.024308471 -0.0043310723 -0.0073240804 -0.088433474 0.0011130974 -0.005358385 -0.037894666
-0.020734897 -0.016669804 -0.00454227 -0.008296704 -0.06604462 -0.07075774 -0.0005702672 0.022934077
-0.07005838 -0.038703576 -0.008623521 -0.018925507 -0.05152032 -0.00838379 -0.011336643 -0.057746295
0.000841369 0.00030459187 0.00014408403 0.00062881043 -0.19436817 -0.043841098 -0.0062535135 -0.03244043
-0.11378628 -0.014762579 -0.008272196 -0.045455538 0.20062351 0.14357555 0.018896954 0.02938459
0.46310267 0.36807775 0.0890218 0.29926148 0.017996335 0.0456742 0.005207874 -0.0030579078
-0.072204456 -0.050107162 -0.011646685 -0.024028974 -0.08709231 -0.02093013 -0.0048398417 -0.011854612
0.1243107 0.006639468 -0.015593324 -0.088714086 -0.11478571 -0.17368247 -0.028413568 -0.06543326
0.052389037 0.012350067 0.0001842305 -0.0013633247 0.039522525 0.015066384 0.0012245183 -0.00396435
-0.00011032824 0.028373959 0.008025653 0.016822994 -0.025583081 -0.012830361 -0.012268125 -0.061165348
00000000: 9155 a4bd 9927 94bd a58d c63a e3ca 213d
00000010: 8ace 1abc cb47 81bb aff0 0bbc b001 3cbd
00000020: 1f3f 6abd 4260 3cbb f95a 94bb de33 e6bc
00000030: 738d 033d 7158 cd3c 4626 413b 599e 533b
00000040: fe16 8bbd 976d 503a d449 5a39 51e8 83bb
00000050: 5d8e a8be 0a0e d9be b22d 72bd b25c 59bd
00000060: 752f babd fb5e 84bd dcfa 873a 60a6 1f3d
00000070: c1e1 59be 2fb2 afbd ff7a 3abc 3ac4 21bd
00000080: e81c a03e 6c77 443e bcf3 343d 25c2 193e
00000090: 332b 9dbd 89a5 2cbd 67f4 9ebb eaa9 683a
000000a0: 1d46 c5bd 16c8 67bc d5a1 22bc 22b2 55bd
000000b0: 4151 bcbd 7065 4dbd 696b c2bb 1783 babb
000000c0: 1bf6 05bd 17f7 093b aba3 53bc 3dd9 9bbd
000000d0: 3594 32bd c7fd cfb8 5de3 56bb cf71 b1bc
000000e0: 3e65 13be 008c cabd d364 08bc 1aa9 0dbc
000000f0: 97a2 633d e7a8 70bc d4d7 0abc 47bf 24bc
00000100: 1d49 41bd 99f1 07bd 82b8 72bc a826 8ebd
00000110: 1c08 ddbd 0645 27bd f8b6 9fbc df97 b2bd
00000120: 3229 1d3d d101 503d 3a5e c43c 03a5 c13d
00000130: 1754 19be d98d 18be 956e 37bd 0f47 19be
00000140: fbd7 26bd 0b3e d1bc 1a0a 8ebc 7251 9dbd
00000150: 8ae7 d03e 4654 a93e 4ac9 433d a782 843d
00000160: d215 c2bd 5edb ecbc 1c29 89bc 5b70 91bd
00000170: 706a 783d b2ae 673c ba15 5a39 1225 b6ba
00000180: c0be 48bc eea1 1ebc b09c a2ba 2ea0 deb9
00000190: 9593 1bbd b144 cb3b e06b 0dbc 3b06 5cbd
000001a0: 7f54 11be a0ed 43bd 4e14 42bc b609 50bd
000001b0: 1d5e b33d d3ed 1d3e 763e 5c3d f24b 2a3e
000001c0: 148a 91bd a291 19bd 6077 05bc d1f4 8cbc
000001d0: 016e 9abe dc92 86be eb51 eabc e9d1 ecbc
000001e0: c7ec e0bc 8f22 c7bc abeb 8dbb d7fe efbb
000001f0: 9c1c b5bd 5ae5 913a 6495 afbb 7037 1bbd
00000200: 3bdc a9bc 1d8f 88bc 53d7 94bb e6ee 07bc
00000210: 6742 87bd 6fe9 90bd fc7d 15ba 3fe0 bb3c
00000220: c57a 8fbd a487 1ebd ab49 0dbc aa09 9bbc
00000230: f906 53bd 2a5c 09bc 54bd 39bc 6187 6cbd
00000240: 518f 5c3a a1b1 9f39 4315 1739 c1d6 243a
00000250: 7308 47be b992 33bd 46ea ccbb 42e0 04bd
00000260: c808 e9bd bfde 71bc 1b88 07bc 962f 3abd
00000270: 4070 4d3e 7805 133e c9cd 9a3c f4b7 f03c
00000280: cb1b ed3e b074 bc3e 1051 b63d cd38 993e
00000290: 0d6d 933c df14 3b3d d0a6 aa3b 2e67 48bb
000002a0: eedf 93bd 2b3d 4dbd bdd1 3ebc 69d8 c4bc
000002b0: 745d b2bd aa75 abbc 8997 9ebb d939 42bc
000002c0: 9c96 fe3d e58f d93b 247b 7fbc bbaf b5bd
000002d0: c514 ebbd d1d9 31be 92c3 e8bc df01 86bd
000002e0: e395 563d ef57 4a3c 002e 4139 96b1 b2ba
000002f0: 5fe2 213d ffd8 763c 0480 a03a 61e7 81bb
00000300: 0660 e7b8 8170 e83c 077e 033c 60d0 893c
00000310: 9c93 d1bc 6f36 52bc 3f00 49bc 8488 7abd

exp_avg_sq f4 [50, 4]
0.66869843 0.24851516 0.007428606 0.2529469 0.30320823 0.23950727 0.01444872 0.24943927
0.3116256 0.1645671 0.010079772 0.12732053 0.007973119 0.0038201865 0.00028576047 0.0045090737
0.57949734 0.3007931 0.017697282 0.24505611 5.3737884 3.7398112 0.21238673 2.587803
0.6850581 0.22219053 0.0028812238 0.14533451 0.34041527 0.21080533 0.018785622 0.3388188
0.7244955 0.65140533 0.041778415 0.8703743 0.22114001 0.10123437 0.007371603 0.1004585
0.9311645 0.48863906 0.0271353 0.4332731 0.08777317 0.07407142 0.0058244476 0.07029508
1.0752919 0.63120633 0.03570757 0.56022775 0.11898046 0.06975039 0.0044126604 0.049487323
0.8263837 0.26104683 0.0038287374 0.029543994 0.17173786 0.108564146 0.008857995 0.112818435
0.36578012 0.696759 0.05752619 0.6961661 1.0113939 0.5397403 0.028664108 0.54421
0.74181694 0.35263363 0.0145609155 0.3131238 0.11051972 0.3323172 0.019722113 0.490822
0.7443839 0.46769193 0.026257576 0.48440042 1.4283086 0.64443254 0.039282802 0.49989292
0.73752004 0.38671702 0.022097247 0.35099536 0.062085662 0.0019308364 3.4045088e-06 0.00019388623
0.002413878 0.000842341 2.6886453e-05 0.00034097247 1.0807981 0.6029795 0.03347484 0.524306
0.37408257 0.31420705 0.019830272 0.33661342 1.4431908 1.0127861 0.05049275 1.0479009
0.47683766 0.2585244 0.015227885 0.23702654 3.2910202 1.6761001 0.08452523 1.0524447
0.009186555 0.011782635 0.00095123216 0.010990812 0.93431264 0.48282903 0.027894566 0.42119497
0.48773032 0.30962998 0.017750908 0.21834952 0.45029265 0.16807012 0.0050486014 0.20151651
0.54354274 0.2977913 0.016826428 0.27452013 1.0671587 0.60726583 0.0359693 0.5608972
6.975871e-05 4.0060862e-05 2.207471e-06 3.883496e-05 0.51423556 0.40111807 0.029971752 0.45256552
1.0484399 0.5280269 0.029341629 0.46135524 0.34928244 0.16559541 0.009380862 0.13960637
1.7738705 1.9606652 0.12485537 2.62158 0.048852082 0.047607273 0.002895247 0.024026645
0.6250574 0.33981517 0.018700035 0.31420812 0.72730935 0.3778935 0.021374304 0.32174665
1.0773208 1.1270139 0.09524236 1.1984981 1.5469493 0.8674122 0.04529184 0.5698005
0.0835948 0.0042784684 6.8504764e-06 0.00043216618 0.03221724 0.020649964 0.0019769662 0.070651695
0.024312755 0.029730488 0.0022678743 0.021968743 0.53925633 0.38108045 0.022769995 0.3990817
00000000: d22f 2b3f c27a 7e3e aa6b f33b 4282 813e
00000010: 1c3e 9b3e 6541 753e 53ba 6c3c 026d 7f3e
00000020: 648d 9f3e 4784 283e a125 253c 5060 023e
00000030: afa1 023c 185c 7a3b 1fd2 9539 dac0 933b
00000040: f059 143f 8e01 9a3e e4f9 903c fdef 7a3e
00000050: 13f6 ab40 1159 6f40 e87b 593e 909e 2540
00000060: f85f 2f3f ea85 633e ead2 3c3b 92d2 143e
00000070: e94a ae3e 5add 573e 4ee4 993c a879 ad3e
00000080: 8978 393f 80c2 263f d81f 2b3d dad0 5e3f
00000090: 8772 623e f753 cf3d 7d8d f13b 30bd cd3d
000000a0: cc60 6e3f e62e fa3e d94a de3c f9d5 dd3e
000000b0: 6bc2 b33d c2b2 973d 02db be3b def6 8f3d
000000c0: 2aa3 893f bd96 213f 1a42 123d 166b 0f3f
000000d0: 07ac f33d 4bd9 8e3d 1498 903b 38b3 4a3d
000000e0: e28d 533f eea7 853e 8eeb 7a3b 3f06 f23c
000000f0: 0ddc 2f3e e156 de3d 2021 113c 5a0d e73d
00000100: 8847 bb3e cc5e 323f 95a0 6b3d f137 323f
00000110: 5b75 813f 6c2c 0a3f fed0 ea3c 5951 0b3f
00000120: b7e7 3d3f 658c b43e e890 6e3c c351 a03e
00000130: 2a58 e23d 7b25 aa3e 4590 a13c 054d fb3e
00000140: f18f 3e3f 5175 ef3e 211a d73c 5503 f83e
00000150: d1d2 b63f 88f9 243f 01e7 203d f7f1 ff3e
00000160: 1dce 3c3f c6ff c53e 4905 b53c aab5 b33e
00000170: 894d 7e3d 1e14 fd3a 0479 6436 f04d 4b39
00000180: 2732 1e3b 8cd0 5c3a 388a e137 8dc4 b239
00000190: 9857 8a3f dd5c 1a3f ea1c 093d eb38 063f
000001a0: c087 bf3e bfdf a03e 1873 a23c 9858 ac3e
000001b0: 7aba b83f faa2 813f 7cd1 4e3d 9e21 863f
000001c0: 1124 f43e 4f5d 843e 617e 793c 16b7 723e
000001d0: 13a0 5240 738a d63f 901b ad3d 82b6 863f
000001e0: 3483 163c f40b 413c 1c5c 793a cf12 343c
000001f0: 1d2f 6f3f 5e35 f73e 2583 e43c dea6 d73e
00000200: cab7 f93e d287 9e3e 5a6a 913c 0497 5f3e
00000210: c28c e63e 931a 2c3e bd6e a53b 585a 4e3e
00000220: 9e25 0b3f 1a78 983e 94d7 893c e78d 8c3e
00000230: a898 883f c675 1b3f 8b54 133d f596 0f3f
00000240: 6c4b 9238 0607 2838 1024 1436 b9e2 2238
00000250: f1a4 033f 595f cd3e 5287 f53c abb6 e73e
00000260: 4733 863f c52c 073f db5d f03c c136 ec3e
00000270: 26d5 b23e d891 293e 30b2 193c f9f4 0e3e
00000280: 300e e33f 14f7 fa3f 2cb4 ff3d f7c7 2740
00000290: 1f19 483d d8ff 423d 2fbe 3d3b 87d3 c43c
000002a0: c303 203f 41fc ad3e d130 993c e3df a03e
000002b0: f230 3a3f 427b c13e 2a19 af3c fabb a43e
000002c0: a6e5 893f fe41 903f 6d0e c33d 6368 993f
000002d0: 6f02 c63f ba0e 5e3f f083 393d 72de 113f
000002e0: c033 ab3d 6532 8c3b 25dd e536 5d94 e239
000002f0: 3af6 033d 1d2a a93c fd8f 013b d6b1 903d
00000300: 8b2b c73c 5a8d f33c 9ea0 143b cbf7 b33c
00000310: b40c 0a3f fa1c c33e 2488 ba3c 7054 cc3e

exp_avg f4 [50]
0.05587317 -0.33590654 -0.2997969 0.052321926 -0.3553202 0.6433376 0.06205885 -0.38454646
0.4225099 -0.24074204 -0.5091009 -0.20829001 -0.55967414 -0.20398562 0.11469567 0.22797693
0.16260742 -0.55567604 0.4275985 -0.34203202 -0.48704523 0.54795444 -0.4946866 0.030626586
-0.014985843 -0.53017735 -0.41316998 0.4437669 -0.35546285 0.35209578 -0.08767515 -0.49561074
-0.35267168 0.018319706 -0.3729084 -0.53655696 0.004639135 -0.4709826 -0.52508676 0.22008008
0.82522875 -0.0990229 -0.40536213 -0.43435863 0.25181016 0.10351187 0.026556902 0.016017612
-0.013871291 -0.43597263
00000000: 44db 643d f1fb abbe fb7e 99be 844f 563d
00000010: 87ec b5be c6b1 243f 6c31 7e3d 46e3 c4be
00000020: 3853 d83e 1585 76be 7054 02bf fa49 55be
00000030: ce46 0fbf 9be1 50be 90e5 ea3d c972 693e
00000040: 8f82 263e c940 0ebf 31ee da3e d21e afbe
00000050: fe5d f9be be46 0c3f 9047 fdbe 9be4 fa3c
00000060: 2e87 75bc b4b9 07bf 048b d3be 6a35 e33e
00000070: 3aff b5be e645 b43e 078f b3bd b1c0 fdbe
00000080: 6291 b4be 3513 963c daed bebe cc5b 09bf
00000090: e303 983b a224 f1be 166c 06bf ac5c 613e
000000a0: 3142 533f 85cc cabd a08b cfbe 4164 debe
000000b0: 43ed 803e 08fe d33d dc8d d93c 5e37 833c
000000c0: 6944 63bc ce37 dfbe

exp_avg_sq f4 [50]
0.4228683 0.563747 0.4403875 0.011735282 0.7767406 6.741346 0.2157095 0.9026691
1.2958941 0.36659044 1.2187934 0.21676081 1.5840924 0.18814261 0.2995206 0.31921732
1.5263083 1.2623991 0.7875984 0.57219213 1.0895369 1.5855426 0.99108696 0.011051475
0.001764466 1.4841076 0.8251732 1.6435958 0.6138188 3.0486863 0.036444627 1.2647325
0.76127565 0.25589892 0.6862973 1.4999311 9.269144e-05 1.2958775 1.3797301 0.37412313
3.5825703 0.10624927 0.7808468 0.9842624 2.6765842 1.8428081 0.015183079 0.06201512
0.07810006 0.92039895
00000000: 3282 d83e b951 103f 787a e13e 5745 403c
00000010: 79d8 463f 1bb9 d740 f3e2 5c3e 5215 673f
00000020: dcdf a53f beb1 bb3e 6c01 9c3f 8cf6 5d3e
00000030: 8ac3 ca3f 75a8 403e c45a 993e 7470 a33e
00000040: 125e c33f 4b96 a13f 0ca0 493f 2f7b 123f
00000050: f275 8b3f 0ff3 ca3f e0b7 7d3f 3f11 353c
00000060: a845 e73a 3df7 bd3f 8d3e 533f 5961 d23f
00000070: 3b23 1d3f ad1d 4340 f646 153d c1e2 a13f
00000080: f6e2 423f 2f05 833e 2eb1 2f3f befd bf3f
00000090: 5763 c238 50df a53f ff9a b03f 118d bf3e
000000a0: d548 6540 3899 d93d 93e5 473f 9ff8 7b3f
000000b0: 284d 2b40 23e1 eb3f 73c2 783c 9103 7e3d
000000c0: edf2 9f3d 449f 6b3f

exp_avg f4 [100, 50]
-0.00445011 -0.015429802 -0.01793756 -0.012100532 -0.00834853 -0.0038989298 -0.0010155118 -0.025004026
-0.0093454225 -0.012136168 -0.024390107 -0.017552566 -0.026586937 -0.016721971 -0.001974244 -0.008392611
-0.0011671224 -0.01274315 -0.011029763 -0.021639343 -0.017965965 -0.016617438 -0.015475783 0.00012048351
-0.0030931074 -0.016159084 -0.029805003 -0.0045586275 -0.017872015 -0.002473025 -0.02368502 -0.031441435
-0.009184095 -0.00615019 -0.023172293 -0.024893295 0.00031766365 -0.019927932 -0.031564083 -0.0056465487
-0.0042004115 -0.012266897 -0.028777858 -0.016465131 -0.00072441506 -0.0066190087 7.752962e-05 -0.00055580004
-0.016073719 -0.009937515 0.009834222 0.012268224 0.010772761 0.0064972807 0.0059059607 0.00039845138
0.0015739617 0.015381288 0.007940539 0.0076759066 0.013938102 0.0074598677 0.020386083 0.009413873
0.002627662 0.001058976 -7.440444e-05 0.0036870344 0.011560817 0.0046838224 0.010739472 0.010582569
0.006485921 -0.00010116508 0.0015066777 0.011803878 0.013597786 0.006861112 0.010029216 0.002035436
0.010089569 0.020376034 0.008261661 0.008778624 0.014442733 0.017603675 -0.00014558544 0.011692747
0.0189354 0.0036953692 0.004735602 0.013131962 0.0158347 0.012819419 -0.0001435631 0.0041044294
-0.00012628648 -0.00012185668 0.014993065 0.006142327 -0.0041985554 -0.019455494 -0.020494338 -0.015258353
-0.010526402 -0.004978499 -0.00045078146 -0.03093908 -0.009944272 -0.015326881 -0.028869668 -0.022109814
-0.031131152 -0.018185709 -0.0024951936 -0.010649156 -0.0015437186 -0.015427763 -0.012470801 -0.026877822
-0.021896984 -0.020847186 -0.01745703 0.0001485226 -0.003956632 -0.01966442 -0.037254743 -0.0037702718
-0.022522166 -0.0031680132 -0.029809069 -0.0383394 -0.01174314 -0.005511347 -0.0292049 -0.029369293
0.00038795042 -0.024118606 -0.03874864 -0.0071170507 -0.004066727 -0.011772487 -0.036240727 -0.020756861
-0.00096655375 -0.0084410375 9.018372e-05 -0.000737902 -0.018050699 -0.012279363 -0.005711521 -0.019405564
-0.022069043 -0.014947667 -0.010345121 -0.0049147834 -0.001294324 -0.030711295 -0.011546688 -0.01506511
-0.030020718 -0.021697512 -0.033033386 -0.020571869 -0.0024551363 -0.010474489 -0.001529856 -0.015733678
-0.013669288 -0.02659628 -0.022338707 -0.020385208 -0.019048972 0.00014923477 -0.0038716274 -0.020063702
-0.036694188 -0.0056628985 -0.022129621 -0.0031275083 -0.029239716 -0.03871909 -0.011652153 -0.0077226805
-0.028699918 -0.030882908 0.00039227196 -0.02450632 -0.038893286 -0.006955902 -0.0051702284 -0.01537085
-0.035590656 -0.020402057 -0.0009515037 -0.008327455 9.486576e-05 -0.000704377 -0.01990631 -0.012397451
-0.0057764105 -0.019657249 -0.022394465 -0.01516305 -0.0104916785 -0.0049774786 -0.001309717 -0.031168394
-0.011712973 -0.015276323 -0.03046232 -0.022008955 -0.033494186 -0.020875342 -0.0024891724 -0.010616529
-0.0015446728 -0.01596099 -0.0138629 -0.026990345 -0.02264886 -0.020690585 -0.019329036 0.00015135454
-0.0039232885 -0.020344667 -0.037233137 -0.0057420847 -0.02244436 -0.00316663 -0.029662563 -0.039287187
-0.011795176 -0.007823723 -0.029107561 -0.031317405 0.0003979365 -0.024868619 -0.039461985 -0.0070577147
-0.005246348 -0.015574812 -0.036100317 -0.020691186 -0.0009605447 -0.008435067 9.630944e-05 -0.0007130942
-0.02018937 -0.012566245 0.0018478122 0.007250579 0.016871914 0.019859914 0.009202395 0.0020534042
00000000: 3ad2 91bb 48cd 7cbc caf1 92bc 4f41 46bc
00000010: 46c8 08bc 3085 7fbb ec1a 85ba 3ed5 ccbc
00000020: 8b1d 19bc c7d6 46bc c3cd c7bc 66ca 8fbc
00000030: d9cc d9bc 84fc 88bc 5162 01bb 2981 09bc
00000040: 21fa 98ba a5c8 50bc 2eb6 34bc fe44 b1bc
00000050: 5c2d 93bc 4b21 88bc 238e 7dbc 18ac fc38
00000060: bbb5 4abb 0e60 84bc 9f29 f4bc 8a60 95bb
00000070: 5568 92bc 7912 22bb 1607 c2bc bcc8 00bd
00000080: e378 16bc 8887 c9bb d2d3 bdbc 06ed cbbc
00000090: 188c a639 e73f a3bc 5749 01bd af06 b9bb
000000a0: 9ba3 89bb 18fb 48bc 8bbf ebbc e2e1 86bc
000000b0: ace6 3dba 45e4 d8bb 6697 a238 1cb3 11ba
000000c0: 08ad 83bc f5d0 22bc b71f 213c a900 493c
000000d0: 3c80 303c 24e7 d43b ca86 c13b 3de7 d039
000000e0: 644d ce3a cc01 7c3c 0919 023c 2c86 fb3b
000000f0: a35c 643c e871 f43b b700 a73c a53c 1a3c
00000100: da34 2c3b 57cd 8a3a 9409 9cb8 2ca2 713b
00000110: 9569 3d3c c07a 993b 9cf4 2f3c 8362 2d3c
00000120: d987 d43b 9728 d4b8 b77b c53a 0d65 413c
00000130: 40c9 5e3c 2ed3 e03b 9551 243c f364 053b
00000140: b84e 253c a4eb a63c eb5b 073c 38d4 0f3c
00000150: 36a1 6c3c 9535 903c 4ba8 18b9 ef92 3f3c
00000160: 691e 9b3c 022e 723b 1c2d 9b3b 7127 573c
00000170: c6b7 813c 8a08 523c 6d89 16b9 737e 863b
00000180: c56b 04b9 4f8d ffb8 79a5 753c 9345 c93b
00000190: 0994 89bb 2161 9fbc bee3 a7bc 2cfe 79bc
000001a0: ee76 2cbc ad22 a3bb dd56 ecb9 f473 fdbc
000001b0: 4ded 22bc 991d 7bbc 1580 ecbc a41f b5bc
000001c0: c206 ffbc 32fa 94bc 6786 23bb cc79 2ebc
000001d0: 9a56 caba bac4 7cbc 5552 4cbc e12e dcbc
000001e0: 4e61 b3bc b8c7 aabc 0c02 8fbc bbbc 1b39
000001f0: a3a6 81bb 4717 a1bc 6e98 18bd aa16 77bb
00000200: 6880 b8bc 719e 4fbb 2632 f4bc c609 1dbd
00000210: 4d66 40bc 8898 b4bb 1d3f efbc df97 f0bc
00000220: d365 cb39 6294 c5bc e5b6 1ebd 2636 e9bb
00000230: 2e42 85bb 64e1 40bc 2871 14bd 4b0a aabc
00000240: 5360 7dba 474c 0abc 0421 bd38 c46f 41ba
00000250: 0fdf 93bc 622f 49bc b627 bbbb 6bf8 9ebc
00000260: 23ca b4bc 0fe7 74bc 957e 29bc 310c a1bb
00000270: 4fa6 a9ba 4196 fbbc 522e 3dbc a7d3 76bc
00000280: 02ee f5bc fbbe b1bc 044e 07bd 5686 a8bc
00000290: 5ae6 20bb 319d 2bbc 7385 c8ba eae3 80bc
000002a0: 26f5 5fbc 71e0 d9bc aaff b6bc e1fe a6bc
000002b0: 970c 9cbc e77b 1c39 21bb 7dbb a25c a4bc
000002c0: a54c 16bd d68f b9bb 2e49 b5bc e2f6 4cbb
000002d0: 2188 efbc e997 1ebd ace8 3ebc 8a0e fdbb
000002e0: 171c ebbc 27fe fcbc daa9 cd39 7ac1 c8bc
000002f0: 914e 1fbd 56ee e3bb 056b a9bb 05d6 7bbc
00000300: 82c7 11bd 3722 a7bc 556e 79ba e16f 08bc
00000310: abf2 c638 f1a5 38ba 8f12 a3bc ae1e 4bbc
00000320: 0b48 bdbb 3d08 a1bc 9974 b7bc 716e 78bc
00000330: 4ae5 2bbc 1e1a a3bb cfaa abba dc54 ffbc
00000340: c5e7 3fbc 8b49 7abc 1e8c f9bc 204c b4bc
00000350: 3331 09bd c402 abbc 6221 23bb f3f0 2dbc
00000360: 9e76 caba 9fc0 82bc 3821 63bc db1a ddbc
00000370: 1a8a b9bc 4d7f a9bc ed57 9ebc edb4 1e39
00000380: ee8e 80bb dca9 a6bc c681 18bd 1928 bcbb
00000390: 3cdd b7bc 3c87 4fbb e7fe f2bc 9aeb 20bd
000003a0: 8e40 41bc 132f 00bc fb72 eebc ae46 00bd
000003b0: 22a2 d039 46b9 cbbc e4a2 21bd 6744 e7bb
000003c0: 8fe9 abbb 7f2d 7fbc eddd 13bd 9080 a9bc
000003d0: 10cd 7bba 3c33 0abc bdf9 c938 f1ee 3aba
000003e0: 2d64 a5bc a7e2 4dbc 4a32 f23a 4496 ed3b
000003f0: f836 8a3c 42b1 a23c a4c5 163c 6892 063b

exp_avg_sq f4 [100, 50]
0.0019454948 0.0041077314 0.0013256838 0.0011178652 0.00029998372 0.00084287376 4.413898e-05 0.002288494
0.000760476 0.00069516874 0.0022296626 0.0012984026 0.006012046 0.0014012019 0.00027779606 0.0013945017
0.000335457 0.0008977055 0.0009616496 0.0026383067 0.0032426275 0.0019605034 0.0012549135 1.5202168e-07
0.0002655197 0.001758828 0.0033387702 0.00054590934 0.0015570226 0.0003536196 0.0024624816 0.003651717
0.0010909041 0.001508018 0.0027976288 0.0044026645 4.624788e-07 0.0014310955 0.0035983697 0.00021590518
0.0002999615 0.0032342502 0.0040186797 0.0014665648 0.00017814618 0.0016642516 5.9583397e-07 8.312793e-05
0.0018089568 0.0011642515 0.0044782483 0.006039288 0.0015583694 0.00034890862 0.00036672156 0.00012210583
0.00010169597 0.0026426788 0.0012697052 0.000555198 0.0021191726 0.0004399192 0.008826876 0.0019826756
0.0006290499 3.6860363e-06 1.4812634e-05 0.00026436508 0.0019857401 0.000108341854 0.0034065358 0.0014346289
0.0009420218 1.367469e-07 2.2051341e-05 0.0023628771 0.0016812106 0.0013296803 0.0010631797 0.00044701475
0.0006843211 0.0042582066 0.0013342388 0.0035697543 0.0023559318 0.0059973416 2.3451842e-07 0.0016126172
0.0037301257 0.00018213861 0.0007363513 0.006769549 0.0024580779 0.0018561686 4.1725684e-07 0.0014978818
2.8963865e-07 3.9825483e-07 0.0034254275 0.0013510569 0.0029820553 0.006485322 0.0019957088 0.001794304
0.000472999 0.0014020574 5.2722684e-05 0.003567846 0.001120617 0.0011145084 0.003441694 0.002097329
0.009353413 0.002036499 0.00043488402 0.0022910081 0.0005580181 0.0014404759 0.0014544543 0.0042656544
0.0051613697 0.0030865916 0.0019112477 2.3970966e-07 0.0004352124 0.0027629856 0.005316904 0.00076470355
0.0024980733 0.00057224557 0.003983062 0.0056835455 0.0017425347 0.0022351411 0.004467531 0.0068672416
7.383212e-07 0.0022192772 0.005629599 0.00034586672 0.0004355536 0.004754359 0.00645206 0.0023098483
0.0002963815 0.0027088404 9.461027e-07 0.0001360079 0.0027288734 0.0018530291 0.0028655855 0.006259219
0.001971905 0.0017534508 0.00045587504 0.0014063851 6.5809385e-05 0.003413497 0.0011161832 0.001087869
0.0033559005 0.0020592313 0.009046606 0.0020716859 0.00041466314 0.0022765172 0.00055919896 0.0014252199
0.001397271 0.004206446 0.005028363 0.0029731654 0.0019228135 2.3177348e-07 0.00043133952 0.00266609
0.005178952 0.00079100794 0.0024404405 0.00056250393 0.003914881 0.005458223 0.0016964474 0.0022200204
0.004349411 0.0066564125 7.246647e-07 0.002134373 0.0054213316 0.0003377448 0.00043278854 0.0047491877
0.0063074385 0.0022247275 0.00029695488 0.002674208 9.1947487e-07 0.00013452134 0.0026408664 0.0018009363
0.002955372 0.006437177 0.0020316364 0.0017990194 0.0004689179 0.0014364964 6.780577e-05 0.0035161749
0.0011512287 0.0011164653 0.0034543327 0.0021111383 0.009312841 0.0021354645 0.00042723262 0.0023289162
0.0005712266 0.0014610038 0.001442463 0.004310593 0.005164172 0.0030583122 0.0019764141 2.3834184e-07
0.0004414371 0.0027429415 0.0053183273 0.0008167978 0.0025042042 0.00057663315 0.004012808 0.0056215576
0.0017419177 0.002289729 0.0044658626 0.006849679 7.4359974e-07 0.002198603 0.005580014 0.00034659982
0.00044705076 0.0048987116 0.0064715175 0.0022886929 0.00030334183 0.002739131 9.445621e-07 0.00013771569
0.0027251926 0.0018499485 0.00058575213 0.0023229225 0.0028646188 0.0026845587 0.0005359587 0.0015493833
00000000: f9ff fe3a 269a 863b 91c2 ad3a 5585 923a
00000010: 2247 9d39 4df4 5c3a de21 3938 8ffa 153b
00000020: ae5a 473a fc3b 363a 881f 123b 292f aa3a
00000030: b200 c53b 89a8 b73a 28a5 9139 b6c7 b63a
00000040: 47e0 af39 ff53 6b3a 3617 7c3a 71e7 2c3b
00000050: 4382 543b ca7b 003b e97b a43a 673b 2334
00000060: 7335 8b39 7988 e63a 45cf 5a3b 5b1b 0f3a
00000070: 0215 cc3a 0566 b939 9661 213b a551 6f3b
00000080: abfc 8e3a b0a8 c53a 6c58 373b 3a44 903b
00000090: 9a4a f834 9993 bb3a a0d2 6b3b 9b64 6239
000000a0: 2744 9d39 b7f5 533b 21af 833b c039 c03a
000000b0: c0cc 3a39 0423 da3a 66f1 1f35 f854 ae38
000000c0: 851a ed3a cc99 983a 45be 923b 38e5 c53b
000000d0: 3342 cc3a b9ed b639 8944 c039 8909 0039
000000e0: 9c45 d538 cb30 2d3b 3d6c a63a b58a 113a
000000f0: d1e1 0a3b f5a4 e639 9a9e 103c c7ef 013b
00000100: d3e6 243a 9f5d 7736 c783 7837 7b9a 8a39
00000110: 3123 023b 9735 e338 3040 5f3b 280a bc3a
00000120: 03f2 763a b4d4 1234 e5fa b837 80da 1a3b
00000130: 115c dc3a ab48 ae3a 645a 8b3a 4e5d ea39
00000140: 0364 333a 6d88 8b3b a0e1 ae3a 8af2 693b
00000150: fa65 1a3b 5985 c43b efcf 7b34 745e d33a
00000160: 2075 743b 76fc 3e39 b307 413a 18d3 dd3b
00000170: b417 213b af4a f33a 5803 e034 9354 c43a
00000180: a27f 9b34 bacf d534 237d 603b f215 b13a
00000190: 966e 433b d382 d43b 70ca 023b da2e eb3a
000001a0: dafc f739 3dc5 b73a 8d22 5d38 86d2 693b
000001b0: abe1 923a b214 923a 0b8e 613b 5773 093b
000001c0: 0f3f 193c c976 053b 2501 e439 bd24 163b
000001d0: f647 123a 5ace bc3a 63a3 be3a e7c6 8b3b
000001e0: b520 a93b 6a48 4a3b d582 fa3a 72b1 8034
000001f0: 382d e439 3513 353b 6c39 ae3b 6376 483a
00000200: b7b6 233b c002 163a 5984 823b 093d ba3b
00000210: c365 e43a 727b 123b 5e64 923b 9906 e13b
00000220: 0c31 4635 4b71 113b 8078 b83b 7255 b539
00000230: 045b e439 74ca 9b3b cd6b d33b d360 173b
00000240: a763 9b39 cd86 313b aff7 7d35 589d 0e39
00000250: e6d6 323b 57e1 f23a 8ccc 3b3b 221a cd3b
00000260: 133b 013b 0cd4 e53a 8302 ef39 7456 b83a
00000270: 2503 8a38 fab4 5f3b e54c 923a d496 8e3a
00000280: abee 5b3b 2bf4 063b 3738 143c 1fc5 073b
00000290: 2567 d939 9f31 153b 3597 123a 72ce ba3a
000002a0: a224 b73a 3ad6 893b f7c4 a43b 70d9 423b
000002b0: ea06 fc3a 69dd 7834 6925 e239 91b9 2e3b
000002c0: 33b4 a93b a55b 4f3a ccef 1f3b 0075 133a
000002d0: 6748 803b e5da b23b 545b de3a c37d 113b
000002e0: 8185 8e3b 091e da3b 9486 4235 d6e0 0b3b
000002f0: 6da5 b13b 5713 b139 e5e7 e239 139f 9b3b
00000300: a1ae ce3b bccc 113b 9cb0 9b39 c441 2f3b
00000310: d5d1 7635 4c0e 0d39 6312 2d3b 650d ec3a
00000320: eaae 413b f4ee d23b 3425 053b 13cd eb3a
00000330: 18d9 f539 d248 bc3a f232 8e38 a06f 663b
00000340: d3e4 963a 5c56 923a 1662 623b 065b 0a3b
00000350: e394 183c 26f3 0b3b 31fe df39 bba0 183b
00000360: 5ebe 153a 277f bf3a 0711 bd3a e03f 8d3b
00000370: 3738 a93b f76d 483b ba86 013b e8ea 7f34
00000380: af70 e739 ecc2 333b 5d45 ae3b 5f1e 563a
00000390: 931d 243b 3229 173a e07d 833b 0b35 b83b
000003a0: 0f51 e43a 470f 163b 5f56 923b 4673 e03b
000003b0: c99b 4735 7016 103b 8dd8 b63b d7b7 b539
000003c0: 2362 ea39 5f85 a03b 060f d43b e5fd 153b
000003d0: da09 9f39 fe82 333b d08d 7d35 c667 1039
000003e0: 2599 323b f979 f23a 298d 193a 2c3c 183b
000003f0: 54bc 3b3b 6cef 2f3b 947f 0c3a ad14 cb3a

exp_avg f4 [100]
-0.040892467 0.02445943 -0.04991792 -0.050525803 -0.051253255 0.03661617 -0.043850332 -0.042370927
-0.06437736 0.00041421034 -0.048597023 0.01267228 -0.04961493 -0.0467738 -0.04949663 -0.059312914
0.036885172 -0.04275783 -0.0032531836 0.00031792535 -0.05342101 -0.045844696 -0.041403163 0.0004401197
-0.032001853 0.00039570406 -0.04355536 -0.054767 -0.05414544 -0.05126344 -0.054419696 -0.056512907
0.028044714 0.00047983276 0.00040873172 0.022253515 0.022970347 -0.04532686 0.00035262379 -0.058208928
0.0119261565 -0.044223137 -0.04706996 -0.052422706 0.02336911 -0.04610419 0.030904524 -0.050736282
-0.0479686 -0.03811443 -0.03175259 -0.03558624 0.010746965 -0.058636103 0.032627918 0.008633925
0.00037316504 0.014816569 -0.043932386 0.05120279 0.038591325 0.01850143 0.03764906 0.048686735
0.025413979 0.03067644 -0.030176962 -0.059388075 -0.041971467 0.048379853 -0.056034334 -0.048627764
0.0005186248 -0.05168817 -0.02312724 -0.03546716 -0.047615245 0.02946154 -0.05937691 0.023193
-0.03568682 0.037929866 0.028078891 -0.017887184 -0.03061251 -0.03708898 -0.043648973 -0.037760783
-0.03263383 0.021649057 -0.03541738 0.0004864764 0.017587017 -0.058835354 -0.04297729 -0.04303875
-0.052057195 -0.04407524 0.040953036 -0.051452
00000000: dc7e 27bd 245f c83c bc76 4cbd 25f4 4ebd
00000010: efee 51bd d6fa 153d 689c 33bd 238d 2dbd
00000020: 47d8 83bd 5f2a d939 ac0d 47bd 659f 4f3c
00000030: 0639 4bbd e295 3fbd fabc 4abd 19f2 72bd
00000040: e814 173d d622 2fbd 5d33 55bb 38af a639
00000050: fdcf 5abd a6c7 3bbd 5d96 29bd debf e639
00000060: 6014 03bd 8076 cf39 1b67 32bd 5d53 60bd
00000070: 9cc7 5dbd 9df9 51bd 30e7 5ebd 147a 67bd
00000080: 07be e53c 1092 fb39 0b4b d639 014d b63c
00000090: 4f2c bc3c a8a8 39bd 5de0 b839 7c6c 6ebd
000000a0: ed65 433c 5223 35bd 6ecc 40bd 31b9 56bd
000000b0: 9370 bf3c bfd7 3cbd 7c2b fd3c d9d0 4fbd
000000c0: b97a 44bd e01d 1cbd 010f 02bd e1c2 11bd
000000d0: 0a14 303c 692c 70bd daa4 053d 4e75 0d3c
000000e0: 5da5 c339 32c1 723c 72f2 33bd 04ba 513d
000000f0: f011 1e3d 5090 973c e735 1a3d be6b 473d
00000100: fa30 d03c 284d fb3c ad35 f7bc e940 73bd
00000110: 46ea 2bbd f429 463d 4284 65bd e82d 47bd
00000120: 52f4 073a f9b6 53bd 5675 bdbc 0346 11bd
00000130: 3408 43bd 5459 f13c 3435 73bd 3fff bd3c
00000140: 582c 12bd 595c 1b3d b405 e63c 2588 92bc
00000150: 16c7 fabc 9dea 17bd 44c9 32bd 0dab 1abd
00000160: 0dab 05bd 5d59 b13c d111 11bd c20d ff39
00000170: a612 903c 57fd 70bd f408 30bd 6649 30bd
00000180: ed39 55bd 3d88 34bd 5fbe 273d 55bf 52bd

exp_avg_sq f4 [100]
0.0072412766 0.006485037 0.011428364 0.011105044 0.011414236 0.010769772 0.008574135 0.008159889
0.019016217 7.745095e-07 0.010242652 0.014405505 0.0117893815 0.009570267 0.01070253 0.016292972
0.00899289 0.007911752 0.0027446803 4.834503e-07 0.012440403 0.00922696 0.0074380618 8.43831e-07
0.004917014 6.8393854e-07 0.009003033 0.01379992 0.0133829005 0.011646784 0.012907215 0.01396041
0.0061970144 9.979373e-07 7.6736694e-07 0.0036297904 0.0034551637 0.009029485 5.411653e-07 0.015525523
0.008803818 0.008961549 0.009688923 0.011926027 0.0034640753 0.009335999 0.0083278045 0.011187871
0.010091101 0.006494523 0.005116408 0.00558775 0.012491926 0.015130407 0.0067278184 0.013573817
6.1922077e-07 0.0059746276 0.008674214 0.0059529943 0.0061828643 0.008356007 0.007557773 0.018227603
0.003312371 0.011007027 0.004720888 0.015596693 0.0076470985 0.024191907 0.01440193 0.010318314
1.1662229e-06 0.0118842255 0.002930453 0.005465034 0.0100017255 0.006892974 0.016284639 0.0036218462
0.0060027563 0.012471976 0.0052005714 0.0019829962 0.004193553 0.006742779 0.008707964 0.0062333923
0.0046161055 0.0060794954 0.005530527 1.0350038e-06 0.004023211 0.0150466105 0.008349997 0.008174724
0.011800726 0.008471639 0.013765524 0.0121184345
00000000: 3b48 ed3b 6f80 d43b 083e 3b3c eef1 353c
00000010: c702 3b3c b373 303c 877a 0c3c 0eb1 053c
00000020: e6c7 9b3c e3e7 4f35 ccd0 273c 1105 6c3c
00000030: 4028 413c 9ccc 1c3c aa59 2f3c d778 853c
00000040: ea56 133c 4ba0 013c 18e0 333b 74c6 0135
00000050: d5d2 4b3c ad2c 173c fcba f33b a083 6235
00000060: e71e a13b e697 3735 7581 133c 0f19 623c
00000070: f443 5b3c 27d2 3e3c c978 533c 34ba 643c
00000080: 5310 cb3b ddf0 8535 0efd 4d35 c7e1 6d3b
00000090: 0770 623b 68f0 133c 9944 1135 c35e 7e3c
000000a0: e43d 103c 76d3 123c 4abe 1e3c 6265 433c
000000b0: 8a05 633b 05f6 183c 5871 083c 554d 373c
000000c0: 2555 253c 02d0 d43b 8ba7 a73b 7219 b73b
000000d0: efaa 4c3c 87e5 773c 0875 dc3b b764 5e3c
000000e0: 8738 2635 cfc6 c33b 4a1e 0e3c 5611 c33b
000000f0: a099 ca3b a2e7 083c 32a7 f73b 0e52 953c
00000100: 5d14 593b d156 343c aeb1 9a3b 4689 7f3c
00000110: 8394 fa3b 1b2e c63c 13f6 6b3c 250e 293c
00000120: 1d87 9c35 0eb6 423c d80c 403b 0714 b33b
00000130: 47de 233c 75de e13b 5d67 853c 7f5c 6d3b
00000140: c5b2 c43b 4257 4c3c 8e69 aa3b 28f5 013b
00000150: 126a 893b 88f2 dc3b d9ab 0e3c 7c41 cc3b
00000160: b342 973b 8136 c73b 6c39 b53b 76ea 8a35
00000170: 24d5 833b 0f86 763c 6dce 083c 47ef 053c
00000180: d557 413c a1cc 0a3c cb88 613c 668c 463c
