PolicyDistillation/teacher.pt (torch, 99531 bytes, 24 tensors)

weight f4 [50, 4]
0.64121795 -0.28425112 -1.044798 0.08916355 0.12181701 -0.14803195 -0.8251154 -0.22960924
0.02317462 -0.05078682 -2.360659 -0.32592496 -0.44227442 0.16044562 1.8797978 0.23753308
0.93057555 -0.09545593 -1.5324476 -0.22730614 -0.0056642797 -0.06633603 -1.0496845 -0.29496542
-0.42798465 -0.2999112 -1.5061328 0.13560286 0.16398178 0.21426092 -0.801243 0.25279585
0.21864446 0.5406464 -0.19363649 0.40313545 0.2824487 -0.20221367 0.24490114 -0.1733041
0.0015952386 0.07717365 2.5474708 0.36019364 -0.39399964 0.18412448 -1.6303053 -0.2274415
-0.33853984 0.11570104 -1.9332398 -0.20935535 0.07688255 -0.21558893 2.043449 -0.21883562
0.030618088 0.118889585 0.21120065 0.101312384 0.2485613 0.07342594 0.4789512 -0.035398778
0.03341752 -0.017391164 -2.269507 -0.24406941 0.49359044 0.41764802 0.087518424 0.25012636
0.58106184 0.09654511 -0.7071919 0.6208603 -0.045272868 0.18800695 -1.6848302 -0.05953997
0.74276346 -0.17724338 -1.5576051 -0.41950798 0.41854188 -0.06575691 1.9214059 0.080970526
-0.18168715 -0.20270282 -0.58600634 0.76062727 -0.33345875 -0.30022442 0.17565909 -0.15007146
0.5085331 -0.39831614 1.66926 -0.11367084 -0.051818952 -0.040226985 0.43934515 0.00798218
0.015144538 0.011399084 -2.4043 -0.08601689 0.09497226 0.3630098 -1.5806938 -0.40794665
-0.04300345 0.06228584 3.4432666 0.4183402 0.021557342 -0.28221655 -1.2041268 -0.42311937
-0.061703276 0.079758555 1.4217021 -0.46849507 0.2555901 -0.1907389 -1.3328798 -0.40936634
-0.06779683 0.04769944 2.703533 0.39958012 0.036022745 -0.041420832 2.2271445 -0.4461159
-0.5143061 -0.3172952 -0.4863397 -0.20135546 -0.44016737 -0.45613906 -0.40246826 -0.2918914
-0.6799086 -0.10936313 0.5881116 -0.060984444 0.2375182 0.24828275 -1.2089593 -0.06442817
-0.8214614 -0.039703026 -0.2025602 0.027122224 0.08663168 -0.024864819 -2.4751105 -0.36856055
0.011507578 0.0792528 1.843251 0.3591458 -0.24168487 0.22974578 1.8340636 0.47542372
0.21075687 -0.27150032 0.78816396 0.054351874 -0.3080435 -0.24687964 -0.45441094 -0.18668364
0.28724578 -0.16284117 -2.1782506 0.20800588 -0.013562542 0.70329595 0.552722 0.52774286
-0.004279121 -0.010501478 -1.4282689 -0.1492363 0.23402673 -0.32271326 1.0514901 -0.5353464
-0.1732599 0.19519158 2.2570803 0.48503646 0.12260401 -0.08740817 -0.599989 0.6662373
00000000: dc26 243f 5d89 91be f1bb 85bf 619b b63d
00000010: 327b f93d b095 17be c33a 53bf af1e 6bbe
00000020: b3d8 bd3c d705 50bd 0915 17c0 a3df a6be
00000030: cb71 e2be db4b 243e 379d f03f df3b 733e
00000040: 333a 6e3f 667e c3bd 3e27 c4bf f1c2 68be
00000050: 6c9b b9bb 2fdb 87bd 105c 86bf b505 97be
00000060: ce20 dbbe f68d 99be f6c8 c0bf 7adb 0a3e
00000070: d7ea 273e 3767 5b3e 431e 4dbf 756e 813e
00000080: 55e4 5f3e cd67 0a3f a548 46be c567 ce3e
00000090: 1e9d 903e 1a11 4fbe 5dc7 7a3e a176 31be
000000a0: 5317 d13a 380d 9e3d c309 2340 4d6b b83e
000000b0: 52ba c9be 218b 3c3e d8ad d0bf 6de6 68be
000000c0: 1855 adbe abf4 ec3d 6774 f7bf 4061 56be
000000d0: 9974 9d3d 58c3 5cbe dec7 0240 7216 60be
000000e0: c9d2 fa3c 627c f33d fc44 583e de7c cf3d
000000f0: da86 7e3e 5760 963d 1739 f53e 4ffe 10bd
00000100: cfe0 083d ea77 8ebc 9a3f 11c0 55ed 79be
00000110: e3b7 fc3e f6d5 d53e dc3c b33d 9010 803e
00000120: 78c0 143f 71b9 c53d 870a 35bf b3f0 1e3f
00000130: 0b70 39bd e584 403e 84a8 d7bf 2fe0 73bd
00000140: bf25 3e3f 4a7f 35be 9b5f c7bf c0c9 d6be
00000150: 1f4b d63e 8fab 86bd a1f0 f53f e0d3 a53d
00000160: 320c 3abe 5491 4fbe 8304 16bf 78b8 423f
00000170: 1bbb aabe 04b7 99be fadf 333e 55ac 19be
00000180: 3a2f 023f 18f0 cbbe 50aa d53f 42cc e8bd
00000190: 1c40 54bd 0dc5 24bd d9f1 e03e b1c7 023c
000001a0: cc20 783c 39c3 3a3c 0de0 19c0 a029 b0bd
000001b0: d180 c23d 6cdc b93e 2d54 cabf 62de d0be
000001c0: 6324 30bd 701f 7f3d 7b5e 5c40 b030 d63e
000001d0: 0699 b03c b07e 90be d420 9abf 1aa3 d8be
000001e0: 93bc 7cbd 7458 a33d 56fa b53f 96de efbe
000001f0: b5dc 823e 0f51 43be ce9b aabf 7798 d1be
00000200: 10d9 8abd 7d60 433d af06 2d40 c495 cc3e
00000210: 968c 133d e4a8 29bd 8989 0e40 4e69 e4be
00000220: 91a9 03bf 8474 a2be 8401 f9be 2030 4ebe
00000230: 9e5d e1be 0f8b e9be 5210 cebe ca72 95be
00000240: 7d0e 2ebf c7f9 dfbd 7b8e 163f d3ca 79bd
00000250: f937 733e d53d 7e3e 2ebf 9abf ebf2 83bd
00000260: 4b4b 52bf a49f 22bd f16b 4fbe 6d2f de3c
00000270: f36b b13d 4eb1 cbbc 3668 1ec0 f8b3 bcbe
00000280: 488a 3c3c 4b4f a23d a6ef eb3f f5e1 b73e
00000290: 3d7c 77be 7a42 6b3e 99c2 ea3f bd6a f33e
000002a0: a6d0 573e 1702 8bbe 1dc5 493f 12a0 5e3d
000002b0: e1b7 9dbe 04ce 7cbe 8da8 e8be ff29 3fbe
000002c0: e111 933e d6bf 26be 7568 0bc0 7eff 543e
000002d0: 6d35 5ebc 340b 343f 307f 0d3f 281a 073f
000002e0: de37 8cbb 640e 2cbc 84d1 b6bf 67d1 18be
000002f0: b4a4 6f3e ac3a a5be 3a97 863f 760c 09bf
00000300: 0b6b 31be 4de0 473e 0174 1040 b356 f83e
00000310: d017 fb3d 0e03 b3bd e198 19bf 878e 2a3f

bias f4 [50]
-0.21529202 0.31496385 0.7073352 -0.39364904 -0.4118696 0.51439726 0.35087574 0.39715785
-0.75356114 0.5003999 -0.47116318 0.62075454 -0.41242328 -0.15882455 0.27789405 0.056008354
-0.45563266 -0.7383787 0.035218127 0.46639717 -0.59861565 -0.23185024 -0.5246104 -0.046371046
0.42307585 -0.36773804 -0.41369405 -0.09784938 -0.6206746 -0.25732383 0.064003766 0.61331314
-0.5352019 0.38519427 -0.8383264 -0.6773252 -0.25721264 0.4828722 -0.6782294 -0.50782126
0.7056844 0.739161 0.61598337 -0.72036463 -0.03189204 -0.4392059 0.38127026 0.058517244
0.84943223 0.0572045
00000000: 8375 5cbe f142 a13e eb13 353f 5e8c c9be
00000010: 92e0 d2be 8aaf 033f fca5 b33e 4658 cb3e
00000020: 62e9 40bf 351a 003f 4d3c f1be c5e9 1e3f
00000030: 2529 d3be e7a2 22be 2148 8e3e 0469 653d
00000040: af48 e9be 6306 3dbf e240 103d 9ccb ee3e
00000050: e03e 19bf 266a 6dbe de4c 06bf 91ef 3dbd
00000060: 669d d83e 2948 bcbe b5cf d3be 4165 c8bd
00000070: 88e4 1ebf f3bf 83be 6814 833d 1702 1d3f
00000080: fe02 09bf 2f38 c53e 8f9c 56bf 2f65 2dbf
00000090: 60b1 83be 063b f73e 71a0 2dbf 9300 02bf
000000a0: bca7 343f a839 3d3f 16b1 1d3f d169 38bf
000000b0: 3aa1 02bd 99df e0be db35 c33e c7af 6f3d
000000c0: 6474 593f 444f 6a3d

weight f4 [100, 50]
-0.05200309 -0.008200931 0.46737385 0.45319444 0.19553617 0.02379503 -0.17386867 0.015719367
-0.11701291 0.03162994 0.5203576 -0.09277285 0.4237439 0.04581413 -0.050898474 0.18542725
-0.3736381 -0.38910487 -0.028747331 0.1280362 0.5337874 0.018590603 0.042939294 -0.014578948
0.061605968 -0.07635996 -0.33492655 -0.036008943 0.4166567 0.32256165 -0.030473577 0.3261651
0.38449004 0.18336384 -0.540214 0.040225692 0.18609859 0.175405 -0.1470726 -0.16499221
0.16599774 0.274094 0.05344061 -0.21528037 -0.14971997 -0.2883436 0.20790145 0.11089226
0.26201195 -0.009402035 0.1000755 -1.103531 -4.1808753 0.68287635 -0.04027573 -0.43952534
-0.99502206 -0.3039846 -0.896714 -0.08078344 0.44321495 -1.4244488 -0.43138996 0.50655
-0.05452498 0.15276921 -0.17149797 -0.5932351 -0.37761357 -1.7609472 -0.09687681 0.67331284
0.5249534 -0.12218484 0.40908235 0.027244058 -0.2441281 -0.32484195 0.5647277 -0.8247413
1.1908249 -1.6461545 0.5394306 1.070595 0.016387945 -0.16516837 0.09898552 -0.7168965
0.3487611 -0.079706065 0.21829559 0.26380903 -0.08133092 -0.2503886 1.164906 0.05777062
-2.9375775 0.65935266 0.3386994 -0.18624485 0.058065306 -0.08973643 -0.29764384 -0.1664022
0.0335343 -0.09899834 0.18845977 -0.010556383 -0.007539651 0.075939395 -0.18581435 -0.05497486
-0.31865036 -0.09906327 0.11165459 -0.052128263 0.38224328 0.24880064 0.2166361 0.17987692
-0.4961967 0.07562187 -0.23026238 -0.01056924 -0.06830657 -0.028070083 0.36637792 -0.025010293
-0.4637413 -0.18122491 0.11275175 -0.20219791 -0.41388604 -0.020404097 0.3799037 0.13140006
-0.261267 -0.05055254 0.19044788 -0.15103835 0.014560904 -0.26645896 -0.013047452 0.20819876
0.15181178 0.34534347 -0.06725231 0.15167066 -0.1287687 0.024959449 -0.22987461 0.07090633
0.38672888 -2.1100452 -0.21276516 0.46709564 0.30524015 0.12892853 -1.1911898 0.13987418
-2.184523 0.24149229 0.4329438 -0.4559977 0.014929321 0.04435434 -0.520554 -1.288506
-0.07773792 0.31993988 0.25689876 -1.5129912 -0.061284438 0.093279526 0.16072969 -0.12408344
-0.4034757 -0.026465856 -2.5210247 0.04468787 -0.06455765 0.27364215 -2.6503274 -0.16344295
-0.5879044 -0.21301432 0.11815221 0.29159355 -0.08824412 -0.24977027 0.32638276 0.26056162
0.32333103 -0.85182273 0.18158832 -0.67262733 0.23084934 0.14012456 0.4831019 0.06559032
0.00063773204 0.08612564 0.15874517 0.2967192 0.12576097 -0.009234583 -0.18480939 -0.104031235
0.058494266 0.16099502 0.47953892 0.062463522 0.54051113 0.051665403 0.057389624 -0.040723454
-0.24108349 -0.39862418 -0.06805326 -0.04684294 0.56505245 -0.04455582 0.053574216 -0.025930485
0.12629585 0.118176475 -0.174824 0.049207363 0.22190084 0.22083491 -0.17000385 0.28443906
0.33382007 -0.026004571 -0.33123174 0.027941475 0.2922895 0.022363942 -0.18438174 0.1556265
0.09632825 0.3316031 0.20214522 -0.4564128 -0.048550025 -0.2619608 -0.021895953 -0.061140828
0.3813766 -0.018791972 0.2152899 0.091976985 -0.096149966 -0.5611306 -0.31773412 -0.06327714
00000000: 3101 55bd 335d 06bc a04b ef3e 1a09 e83e
00000010: a23a 483e cbed c23c a10a 32be e7c5 803c
00000020: 77a4 efbd 658e 013d 2836 053f b1ff bdbd
00000030: f6f4 d83e 99a7 3b3d eb7a 50bd a4e0 3d3e
00000040: 7e4d bfbe c138 c7be 867f ebbc ec1b 033e
00000050: 4ba6 083f 524b 983c 1de1 2f3d 8adc 6ebc
00000060: 8a56 7c3d 9c62 9cbd 7e7b abbe 1d7e 13bd
00000070: 0754 d53e cd26 a53e b9a3 f9bc 1dff a63e
00000080: e1db c43e bbc3 3b3e 774b 0abf b2c3 243d
00000090: a190 3e3e 5e9d 333e 339a 16be b8f3 28be
000000a0: 50fb 293e 0c56 8c3e 8be4 5a3d 7572 5cbe
000000b0: 3150 19be c6a1 93be 1ee4 543e 7b1b e33d
000000c0: 6e26 863e fe0a 1abc 62f4 cc3d 8140 8dbf
000000d0: bbc9 85c0 fcd0 2e3f 2af8 24bd 7709 e1be
000000e0: c4b9 7ebf dfa3 9bbe 0c8f 65bf ca71 a5bd
000000f0: 12ed e23e 5754 b6bf 25df dcbe 43ad 013f
00000100: 9655 5fbd 886f 1c3e 2a9d 2fbe 41de 17bf
00000110: 9156 c1be b866 e1bf 5967 c6bd 3b5e 2c3f
00000120: 5963 063f 0c3c fabd 3e73 d13e ee2e df3c
00000130: b7fc 79be af51 a6be ff91 103f 3f22 53bf
00000140: f36c 983f 31b5 d2bf 2018 0a3f 4209 893f
00000150: 0340 863c e621 29be ecb8 ca3d 8786 37bf
00000160: d190 b23e ef3c a3bd e188 5f3e fa11 873e
00000170: d390 a6bd ef32 80be a41b 953f e3a0 6c3d
00000180: 4501 3cc0 56cb 283f 026a ad3e f8b6 3ebe
00000190: e3d5 6d3d bcc7 b7bd c664 98be 5765 2abe
000001a0: 435b 093d a4bf cabd 99fb 403e aef4 2cbc
000001b0: 2d0f f7bb 1d86 9b3d 1e46 3ebe 522d 61bd
000001c0: 2426 a3be afe1 cabd 29ab e43d 7284 55bd
000001d0: 64b5 c33e 98c5 7e3e dbd5 5d3e a831 383e
000001e0: 7e0d febe a4df 9a3d e7c9 6bbe 9b2a 2dbc
000001f0: 51e4 8bbd 3bf3 e5bc e395 bb3e 63e2 ccbc
00000200: 806f edbe 0693 39be 64ea e63d f80c 4fbe
00000210: dfe8 d3be 7e26 a7bc bd82 c23e bd8d 063e
00000220: cac4 85be 2e10 4fbd c504 433e cca9 1abe
00000230: dc90 6e3c 4f6d 88be fbc4 55bc 0e32 553e
00000240: 8c74 1b3e dcd0 b03e 94bb 89bd 8e4f 1b3e
00000250: f1db 03be c277 cc3c 4064 6bbe 5737 913d
00000260: 5401 c63e fb0a 07c0 1cdf 59be 2927 ef3e
00000270: 7048 9c3e d705 043e e878 98bf 2d3b 0f3e
00000280: 3acf 0bc0 c149 773e cfaa dd3e 8878 e9be
00000290: 1c9a 743c e5ac 353d 0743 05bf c4ed a4bf
000002a0: 0f35 9fbd 29cf a33e 3c88 833e b2a9 c1bf
000002b0: 6405 7bbd 5609 bf3d 5396 243e 751f febd
000002c0: 5e94 cebe ecce d8bc 7858 21c0 a10a 373d
000002d0: cd36 84bd d31a 8c3e f79e 29c0 975d 27be
000002e0: e780 16bf 6d20 5abe c9f9 f13d c04b 953e
000002f0: 55b9 b4bd c7c3 7fbe a41b a73e 5568 853e
00000300: a58b a53e 0e11 5abf 4af2 393e 4e31 2cbf
00000310: c563 6c3e d07c 0f3e 2259 f73e 3854 863d
00000320: 792d 273a a462 b03d 188e 223e 94eb 973e
00000330: 7cc7 003e a64c 17bc ac3e 3dbe 540e d5bd
00000340: af97 6f3d e1db 243e 2086 f53e c0d9 7f3d
00000350: f05e 0a3f 1a9f 533d 6211 6b3d a3cd 26bd
00000360: 97de 76be 7818 ccbe 825f 8bbd 62de 3fbd
00000370: 47a7 103f 2a80 36bd a370 5b3d 2b6c d4bc
00000380: b353 013e 8206 f23d 1005 33be a98d 493d
00000390: f939 633e 8c22 623e 7d15 2ebe ffa1 913e
000003a0: 77ea aa3e 8a07 d5bc 3597 a9be 85e5 e43c
000003b0: f8a6 953e 9634 b73c 91ce 3cbe 8e5c 1f3e
000003c0: bf47 c53d e2c7 a93e 28ff 4e3e f0ae e9be
000003d0: 64dc 46bd ba1f 86be 245f b3bc ce6e 7abd
000003e0: cb43 c33e 9ff1 99bc f574 5c3e 6e5e bc3d
000003f0: 46ea c4bd 41a6 0fbf 0cae a2be 7297 81bd

bias f4 [100]
0.3545688 0.039380573 -0.23119242 0.40813872 0.27723664 -0.17919154 0.29754025 0.3683
0.3487825 0.47718775 0.29993352 -0.03505981 0.22255206 0.29858795 -0.11435713 -0.39032972
0.12988068 -0.14485283 0.13134488 -0.1861142 -0.36468467 -0.19190076 0.28603062 0.3157403
0.2849745 -0.26707366 -0.0066997004 -0.17012583 0.39915168 -0.20565273 0.18547986 -0.016416308
-0.2954721 0.13409577 -0.3267143 -0.1460278 0.046107583 -0.17200404 -0.31174886 0.37651578
0.55625784 0.2918052 0.4761727 0.4298773 -0.009188162 0.2695603 -0.3177838 0.26826072
0.34113824 -0.10791294 0.34469756 -0.15162875 0.20143035 0.44342646 0.37626263 0.40388414
-0.40184808 0.17942192 0.50010675 0.5337765 0.3444533 0.48504853 -0.004086689 -0.06201689
-0.30041564 -0.32470703 0.01247651 0.4161705 0.08628471 0.09330957 0.47784835 0.19321467
0.22660913 0.4853625 -0.35683182 -0.06530031 -0.029106632 0.38899642 0.15445259 -0.3228586
0.07149309 -0.15012412 -0.28381997 -0.28881145 -0.16502747 -0.3304597 0.46506348 0.067596406
-0.01782552 -0.025719061 -0.23013572 -0.35372412 0.5576992 0.54859954 0.18818326 0.4038691
0.40949488 0.05047523 0.15889125 0.08708443
00000000: 0b8a b53e 864d 213d b5bd 6cbe 8ff7 d03e
00000010: f6f1 8d3e fd7d 37be 3257 983e d191 bc3e
00000020: 9f93 b23e f451 f43e e390 993e e09a 0fbd
00000030: b0e4 633e 85e0 983e 1234 eabd 4cd9 c7be
00000040: 71ff 043e 4d54 14be 467f 063e b994 3ebe
00000050: f3b7 babe a281 44be 9b72 923e b6a8 a13e
00000060: 2de8 913e e1bd 88be 2989 dbbb 7735 2ebe
00000070: 9c5d cc3e a196 52be 6fee 3d3e 7e7b 86bc
00000080: 1e48 97be 6750 093e 1947 a7be 5088 15be
00000090: 4edb 3c3d d421 30be 8c9d 9fbe adc6 c03e
000000a0: ea66 0e3f 7e67 953e e8cc f33e e118 dc3e
000000b0: f289 16bc cf03 8a3e 8fb4 a2be 7859 893e
000000c0: aca9 ae3e 7601 ddbd 337c b03e 9144 1bbe
000000d0: c243 4e3e cb08 e33e 7fa5 c03e e7c9 ce3e
000000e0: 08bf cdbe 61ba 373e ff06 003f 94a5 083f
000000f0: 2f5c b03e 4858 f83e a2e9 85bb 6c05 7ebd
00000100: 14d0 99be 0040 a6be 476a 4c3c 4d14 d53e
00000110: 0ab6 b03d 1619 bf3d 8aa8 f43e 11da 453e
00000120: 390c 683e 6f81 f83e a9b2 b6be 2bbc 85bd
00000130: 0871 eebc 8a2a c73e d228 1e3e b94d a5be
00000140: f86a 923d 23ba 19be da50 91be 18df 93be
00000150: f6fc 28be 0432 a9be cd1c ee3e fc6f 8a3d
00000160: d306 92bc c8b0 d2bc b3a8 6bbe 541b b5be
00000170: 60c5 0e3f 0571 0c3f 1db3 403e eec7 ce3e
00000180: 50a9 d13e 1dbf 4e3d 63b4 223e 5259 b23d

weight f4 [2, 100]
0.13658169 1.6731046 -0.015830204 0.48732567 0.10363273 0.04823936 0.0491409 0.80122083
0.1332273 0.4155711 0.9905709 -0.9378744 -0.028763764 0.8612311 -0.0024953631 -0.09773476
-2.8716867 -3.3335671 0.035583064 -0.05759642 -0.1196048 -0.0026686494 0.4497093 0.16769636
0.09134916 -0.10344745 1.4030957 -0.07604429 0.11931761 -0.115268655 0.3032977 -3.00825
-1.338818 1.1401417 -0.07298585 -1.0710505 -3.6696422 1.5608183 -0.12292764 0.12824601
0.506781 0.03221475 -0.7632485 0.45699653 0.08131832 0.42676893 -0.16864485 1.0262944
0.38886687 -0.058638375 0.14908178 -2.0539994 0.024180878 0.5485047 0.3408949 0.23216064
-0.15227719 -0.023638308 0.44208056 0.59262997 0.085266404 0.4405163 0.534922 -2.8020966
-2.050105 -0.08079118 0.45996928 0.32568386 0.40625203 -0.22304903 0.42567205 0.007967405
0.17555483 0.3945479 -0.02815222 -2.2791278 -0.012427475 0.3623953 0.033465832 -0.10857342
-0.13833645 -0.07226647 -2.597473 -2.8374038 -0.00668736 -0.104695074 0.2624162 0.088630676
-0.21666586 -0.021786656 -0.109521955 -0.11647926 0.45296672 0.47390714 0.15355654 0.4180835
1.1637009 1.9203913 -3.312489 -0.04503589 0.21645747 -3.4011257 0.0014838673 0.7335728
0.15327594 -0.020465164 0.19056752 0.13434906 0.1727975 0.4465108 -0.23621462 0.46894675
0.080374576 -0.21798843 -0.023481378 -0.2554875 -1.5118303 2.203785 0.086406454 -0.1804024
-0.21245162 -0.060666587 0.50935376 0.23256811 0.1668921 -0.23562028 0.036130182 -0.23730694
0.24210979 -0.09930426 0.45824063 -1.0919324 -1.2454339 -3.548743 -0.1432887 -1.7241799
-0.24037021 -0.46584025 -0.24068135 0.21102585 0.74683696 0.12022555 0.8074193 0.5124142
-3.1647043 0.6535309 -0.23141873 -1.1798321 0.532855 -2.7720335 0.19070774 -2.3673644
0.059407175 0.6207163 0.66325796 0.6212805 -0.23639667 0.2296763 0.52700675 0.6402111
0.21821702 0.41189912 -3.5153766 2.4399462 -0.7684914 -0.16835506 -2.7199469 0.68514365
-0.09146288 0.58278185 0.58185047 0.09559641 0.27788138 0.4921179 -0.0643756 -1.8938897
-0.17695343 0.59639287 0.21820399 -0.16996512 0.10736445 0.38248754 -1.562029 3.160465
0.0016561961 -0.26617575 0.6210273 0.075692385 -2.1411347 0.013485299 -0.21170162 -0.15971102
0.55641514 0.5123492 0.25312042 0.35209727 -0.00945545 -2.9981852 0.5006296 0.056929726
00000000: 12dc 0b3e 4b28 d63f 58ae 81bc c082 f93e
00000010: 663d d43d a396 453d f847 493d cf1c 4d3f
00000020: bd6c 083e bcc5 d43e 0e96 7d3f 8918 70bf
00000030: fca1 ebbc a479 5c3f 3f89 23bb 2929 c8bd
00000040: b7c9 37c0 2a59 55c0 8cbf 113d 39ea 6bbd
00000050: 5df3 f4bd 82e4 2ebb 4c40 e63e 98b8 2b3e
00000060: 4515 bb3d 42dc d3bd a498 b33f 1cbd 9bbd
00000070: cb5c f43d f911 ecbd d649 9b3e 2b87 40c0
00000080: 635e abbf 2af0 913f 9b79 95bd 2f18 89bf
00000090: 6bdb 6ac0 e5c8 c73f 7dc1 fbbd ec52 033e
000000a0: 66bc 013f 9df3 033d 4164 43bf 73fb e93e
000000b0: 388a a63d 7581 da3e 3cb1 2cbe 9d5d 833f
000000c0: 8f19 c73e cb2e 70bd e5a8 183e ba74 03c0
000000d0: fa16 c63c ce6a 0c3f c789 ae3e 85bb 6d3e
000000e0: 8dee 1bbe 20a5 c1bc 6258 e23e 99b6 173f
000000f0: 27a0 ae3d 5a8b e13e a6f0 083f 8d55 33c0
00000100: ec34 03c0 d975 a5bd 1881 eb3e 09c0 a63e
00000110: 4400 d03e f766 64be b0f1 d93e b889 023c
00000120: a5c4 333e 2f02 ca3e 7c9f e6bc 3bdd 11c0
00000130: 9c9c 4bbc e08b b93e 7813 093d be5b debd
00000140: 12a8 0dbe 7100 94bd ff3c 26c0 0698 35c0
00000150: a421 dbbb 5f6a d6bd 6b5b 863e 0084 b53d
00000160: a8dd 5dbe ee79 b2bc 0c4d e0bd ae8c eebd
00000170: 41eb e73e f5a3 f23e ed3d 1d3e 0a0f d63e
00000180: 27f4 943f 62cf f53f d2ff 53c0 8e77 38bd
00000190: 07a7 5d3e 0bac 59c0 537e c23a 6dcb 3b3f
000001a0: 5ef4 1c3e 8fa6 a7bc 2224 433e cd92 093e
000001b0: d4f1 303e 109d e43e 3fe2 71be ca19 f03e
000001c0: 6d9b a43d 5c38 5fbe 055c c0bc 42cf 82be
000001d0: a883 c1bf d00a 0d40 def5 b03d 68bb 38be
000001e0: eb8c 59be 877d 78bd 0265 023f 5626 6e3e
000001f0: c3e5 2a3e 7146 71be 3efd 133d 9700 73be
00000200: a1eb 773e 0860 cbbd 849e ea3e 71c4 8bbf
00000210: 616a 9fbf 9b1e 63c0 46ba 12be edb1 dcbf
00000220: 9c23 76be 9d82 eebe 2c75 76be 2917 583e
00000230: b530 3f3f d038 f63d 08b3 4e3f 942d 033f
00000240: 848a 4ac0 cd4d 273f 08f9 6cbe bd04 97bf
00000250: 2f69 083f ff68 31c0 e448 433e e682 17c0
00000260: f054 733d 43e7 1e3f 46cb 293f 3d0c 1f3f
00000270: f811 72be 4430 6b3e eae9 063f e0e4 233f
00000280: 4874 5f3e 71e4 d23e eefb 60c0 1428 1c40
00000290: dabb 44bf 4565 2cbe 9c13 2ec0 9365 2f3f
000002a0: e450 bbbd 3131 153f 27f4 143f 0dc8 c33d
000002b0: 7846 8e3e e1f6 fb3e 5bd7 83bd fa6a f2bf
000002c0: 4833 35be 34ad 183f de70 5f3e 560b 2ebe
000002d0: e5e1 db3d 68d5 c33e 91f0 c7bf 0f45 4a40
000002e0: b814 d93a 3048 88be a5fb 1e3f 9c04 9b3d
000002f0: 5a08 09c0 72f1 5c3c 4fc8 58be 498b 23be
00000300: 3971 0e3f 5129 033f 0099 813e 1846 b43e
00000310: 08eb 1abc 44e2 3fc0 4329 003f 252f 693d

bias f4 [2]
0.43563026 0.49172884
00000000: ee0a df3e e2c3 fb3e

exp_avg f4 [50, 4]
0.024809994 0.013607771 -0.0035438705 -0.003700943 0.018547231 0.009334405 -0.0018877396 -0.008560933
0.113867104 0.027988948 -0.023955915 -0.051783033 -0.034613837 -0.017353984 0.017609647 0.073151775
0.015062274 0.018824205 -0.0062609143 -0.020275962 0.019205179 0.004781928 0.0054134075 0.013074352
0.016127385 0.0070097544 -0.017721355 -0.041587383 -0.005535733 -0.008523963 8.023763e-05 0.005188888
0.010837205 0.008976464 -0.0076275147 -0.016824929 -0.023213198 -0.01693063 0.009257715 0.018236235
-0.06297132 -0.08826698 0.017138433 0.117488146 -0.023239963 -0.031462427 -0.013583749 -0.023166094
-0.050796833 -0.037534364 -0.003617172 -0.00555578 -0.0077210707 -0.0014291169 0.007851864 0.022846036
-0.009949146 -0.010549591 0.0049693137 0.014863486 -0.00058055186 -0.0066221454 0.0010708113 0.01092918
0.023126166 -0.044597797 -0.014666586 0.043777958 0.08664095 0.06466195 -0.0070336135 -0.01552872
0.036761653 0.028347492 -0.00782821 -0.025153486 0.09037259 0.03870159 -0.012652191 -0.019494426
-0.0012572756 0.008576752 -0.012100312 -0.04039367 0.07548421 0.06709631 0.009209689 0.011107763
-0.0026128218 -0.009592269 0.000833019 0.014789553 0.008989765 0.017500855 0.0046477667 -0.0025164697
-0.07136084 -0.05864339 0.024034007 0.062303234 3.5347102e-06 -9.320325e-06 -3.3370405e-05 -4.460001e-05
0.015999917 -0.04160711 -0.019932076 0.034579042 0.0191148 0.006434311 -0.002953606 0.0017546165
0.020275952 -0.045650434 0.024643503 0.1573749 -0.006707454 0.0015732043 -0.0008537646 -0.012275631
-0.01191917 -0.003225597 0.011225027 0.029943118 0.018545019 -0.00991839 2.3097986e-05 0.007935718
0.007106262 -0.06050949 0.023097275 0.16514276 -0.07595533 -0.032975864 0.022945123 0.03779775
-0.07959179 -0.031469453 -0.004281216 -0.019848237 -0.04703582 -0.013534148 -0.0024410011 -0.016519686
0.0034164356 0.008405331 0.00020712534 -0.008189292 0.002891579 -0.004905965 -0.002064152 0.0024827996
-0.045713276 -0.014387599 -0.0029462604 -0.022226164 0.020544764 -0.0024816673 -0.0027280573 0.019745653
-0.036193136 -0.014249231 0.020262562 0.03175158 -0.042180385 -0.008411781 0.026851803 0.034677953
-0.041460246 -0.033478763 0.010267363 0.02435275 -0.108043626 -0.038815524 -0.0056564384 -0.044582713
0.038575575 0.007189724 -0.006988594 0.01836585 0.03466117 0.02825932 -0.00330247 -0.0032144433
0.08697371 0.027576437 -0.018142702 -0.03949431 -0.014777329 -0.0050357967 0.004523798 0.0051257
-0.040735804 -0.0041481606 0.027539128 0.03225989 0.018909665 0.0125477435 -0.002009504 -0.008989087
00000000: 543e cb3c 21f3 5e3c 4840 68bb 858b 72bb
00000010: 5df0 973c 55ef 183c 086e f7ba 2843 0cbc
00000020: 2833 e93d 1449 e53c 323f c4bc 721a 54bd
00000030: 3dc7 0dbd f129 8ebc 1b42 903c 99d0 953d
00000040: c2c7 763c 3835 9a3c 5b28 cdbb c619 a6bc
00000050: 2e54 9d3c b8b1 9c3b f462 b13b cf35 563c
00000060: 941d 843c 15b2 e53b 602c 91bc 8857 2abd
00000070: 1865 b5bb 18a8 0bbc 4045 a838 8c07 aa3b
00000080: 888e 313c 0512 133c 3bf0 f9bb 6fd4 89bc
00000090: 9b29 bebc 1bb2 8abc acad 173c 2864 953c
000000a0: 1bf7 80bd 52c5 b4bd e665 8c3c a09d f03d
000000b0: bc61 bebc bfde 00bd 5f8e 5ebc d2c6 bdbc
000000c0: 5710 50bd a2bd 19bd 130e 6dbb 430d b6bb
000000d0: 0901 fdbb 3551 bbba 1ba5 003c 9c27 bb3c
000000e0: be01 23bc 31d8 2cbc a0d5 a23b fb85 733c
000000f0: 2d30 18ba 95fe d8bb 775a 8c3a 4e10 333c
00000100: 1673 bd3c 2eac 36bd 1f4c 70bc 8450 333d
00000110: cf70 b13d 7c6d 843d 3a7a e6bb 2c6c 7ebc
00000120: 6393 163d 0039 e83c e441 00bc af0e cebc
00000130: 4415 b93d 8f85 1e3d 234b 4fbc c6b2 9fbc
00000140: 2bcb a4ba 8185 0c3c 6340 46bc d573 25bd
00000150: 7797 9a3d ca69 893d 3ce4 163c 56fd 353c
00000160: e03b 2bbb e428 1dbc f55e 5a3a e24f 723c
00000170: cf49 133c f45d 8f3c 4b4c 983b 5beb 24bb
00000180: a225 92bd 0d34 70bd f7e2 c43c ad31 7f3d
00000190: dc35 6d36 7e5e 1cb7 33f7 0bb8 e510 3bb8
000001a0: 4212 833c 386c 2abd 9848 a3bc c1a2 0d3d
000001b0: a496 9c3c ead6 d23b 4991 41bb 29fb e53a
000001c0: c119 a63c f3fb 3abd 2ce1 c93c e326 213e
000001d0: 34ca dbbb fa33 ce3a 2ccf 5fba ba1f 49bc
000001e0: 9f48 43bc 8a64 53bb 2de9 373c 454b f53c
000001f0: b9eb 973c be80 22bc 8cc2 c137 d004 023c
00000200: a5db e83b cdd8 77bd 7f36 bd3c 2f1b 293e
00000210: 788e 9bbd b311 07bd 69f7 bb3c d0d1 1a3d
00000220: 0501 a3bd 1de6 00bd 7149 8cbb c598 a2bc
00000230: a2a8 40bd 55be 5dbc 34f9 1fbb 4b54 87bc
00000240: 47e6 5f3b 83b6 093c c92f 5939 612c 06bc
00000250: a580 3d3b 38c2 a0bb b946 07bb 77b6 223b
00000260: d83d 3bbd f7b9 6bbc 0c16 41bb a513 b6bc
00000270: 7e4d a83c 78a3 22bb 35c9 32bb a3c1 a13c
00000280: 413f 14bd 9b75 69bc acfd a53c f20d 023d
00000290: 57c5 2cbd 91d1 09bc 50f8 db3c 780a 0e3d
000002a0: 38d2 29bd 0721 09bd 7138 283c 6b7f c73c
000002b0: fa45 ddbd 07fd 1ebd a559 b9bb 5d9c 36bd
000002c0: 6c01 1e3d c797 eb3b 9300 e5bb fb73 963c
000002d0: dff8 0d3d 1780 e73c 416e 58bb 69a9 52bb
000002e0: 461f b23d fbe7 e13c 01a0 94bc c9c4 21bd
000002f0: 9c1c 72bc 5303 a5bb 5e3c 943b 7df5 a73b
00000300: 96da 26bd 4bed 87bb bd99 e13c f222 043d
00000310: 71e8 9a3c 0d95 4d3c e2b1 03bb f746 13bc

exp_avg_sq f4 [50, 4]
0.020907076 0.011048263 0.0014518497 0.006601686 0.08991638 0.13222681 0.01991139 0.10127818
1.7129201 2.6567776 0.4204331 1.91289 0.2280003 0.18393409 0.018294048 0.07176864
0.19076118 0.10121531 0.0012392534 0.020331036 0.14408433 0.14901751 0.011758508 0.10493327
0.04645087 0.08057441 0.016714143 0.14551094 0.0147885205 0.02124619 0.0014604016 0.020633638
0.13244277 0.07301802 0.00044082158 0.0059831277 0.07921052 0.069315374 0.002508472 0.053848296
0.087839276 0.20167182 0.021304058 0.17720309 0.079614185 0.17645642 0.034492634 0.17518485
0.07103887 0.07672558 0.005945565 0.121675916 0.026005924 0.05990931 0.011635311 0.051594414
0.020911762 0.020304019 0.00046184007 0.015506697 0.0028763462 0.005388414 0.0003770464 0.006689364
0.14069535 0.45569357 0.07581421 0.92313844 0.22266884 0.11429908 0.00045020645 0.009266371
0.014587648 0.028872997 0.0034405529 0.036491215 0.45187044 0.5753496 0.099756874 0.5906565
0.18759747 0.108878575 0.0008542296 0.05720503 0.30874383 0.32504553 0.03553883 0.2267926
0.00441926 0.014072287 0.00029321446 0.022629539 0.015708454 0.01190937 0.00072837085 0.013596426
0.08302269 0.26473796 0.050014127 0.58866024 2.3616344e-06 2.262824e-06 6.972007e-08 1.6248547e-06
0.10387974 0.19072334 0.06352144 0.43806362 0.022026373 0.02360093 0.0012547615 0.024379749
0.06469108 0.22133411 0.020687412 0.21033064 0.0035009931 0.005721128 0.00024655048 0.00850752
0.033414874 0.055857413 0.013885653 0.028356189 0.31193036 0.3913594 0.047249682 0.317762
0.05841232 0.21161747 0.021224206 0.23362744 0.15961812 0.29149482 0.055254724 0.48395482
0.28710115 0.15318708 0.0012723206 0.0085516395 0.07182124 0.038690086 0.0002981031 0.004036921
0.0072334465 0.006180829 0.00013163386 0.005502734 0.038946528 0.053308588 0.007847011 0.060084444
0.1066058 0.05248419 0.0005831003 0.007028775 0.048674617 0.23613513 0.020127764 0.41663015
0.26340055 0.36496037 0.032572452 0.49494475 0.44849876 0.5978925 0.06331902 0.8460276
0.11745082 0.11555843 0.005146268 0.11338581 0.42456236 0.23179524 0.00186255 0.0110157365
0.08730084 0.09521897 0.017630123 0.18141091 0.12704751 0.09697274 0.0030506928 0.018340867
0.6790586 1.0937229 0.18038298 0.760413 0.013371899 0.020705441 0.0051212735 0.021014234
0.4931968 0.6641691 0.07250464 0.97736585 0.017654326 0.018651146 0.0029612537 0.021351952
00000000: 5145 ab3c c603 353c fe4b be3a f552 d83b
00000010: 1426 b83d 7766 073e 361d a33c ef6a cf3d
00000020: f740 db3f a508 2a40 0243 d73e 94d9 f43f
00000030: e978 693e 3859 3c3e 66dd 953c 70fb 923d
00000040: e656 433e f949 cf3d 726e a23a 468d a63c
00000050: d88a 133e 0c98 183e c2a6 403c 41e7 d63d
00000060: 4443 3e3d 3204 a53d 19ec 883c d200 153e
00000070: 8d4b 723c 7d0c ae3c f26a bf3a e007 a93c
00000080: 149f 073e 798a 953d 121e e739 1d0e c43b
00000090: 2039 a23d 38f5 8d3d 2d65 243b 0890 5c3d
000000a0: 14e5 b33d 0f83 4e3e d985 ae3c ba74 353e
000000b0: c30c a33d feb0 343e 2648 0d3d a863 333e
000000c0: d47c 913d 4d22 9d3d 04d3 c23b 3931 f93d
000000d0: 600a d53c 7763 753d 08a2 3e3c aa54 533d
000000e0: 254f ab3c 9d54 a63c 2023 f239 cd0f 7e3c
000000f0: 1581 3c3b 4b91 b03b 50ae c539 7432 db3b
00000100: 7112 103e ab50 e93e 7b44 9b3d cd52 6c3f
00000110: 4d03 643e a315 ea3d b009 ec39 fad1 173c
00000120: 0801 6f3c 1087 ec3c e67a 613b d077 153d
00000130: 905b e73e 1d4a 133f 554d cc3d 4435 173f
00000140: 8d19 403e bbfb de3d 61ee 5f3a d24f 6a3d
00000150: ac13 9e3e 5e6c a63e 2a91 113d 523c 683e
00000160: 71cf 903b 738f 663c 94ba 9939 9561 b93c
00000170: 04af 803c 851f 433c 24f0 3e3a 8bc3 5e3c
00000180: cd07 aa3d bc8b 873e 9ddb 4c3d 70b2 163f
00000190: 927c 1e36 05db 1736 04b9 9533 9515 da35
000001a0: e7be d43d fb4c 433e 8717 823d e049 e03e
000001b0: a770 b43c bd56 c13c cf76 a43a 0ab8 c73c
000001c0: c27c 843d 69a5 623e a678 a93c ea60 573e
000001d0: eb70 653b 4d78 bb3b 7243 8139 2063 0b3c
000001e0: 09de 083d beca 643d a680 633c 3d4b e83c
000001f0: 56b5 9f3e 4260 c83e e288 413d b3b1 a23e
00000200: c241 6f3d 40b2 583e 63de ad3c 083c 6f3e
00000210: ef72 233e cf3e 953e c752 623d edc8 f73e
00000220: ecfe 923e 13dd 1c3e ffc3 a63a 2d1c 0c3c
00000230: 0417 933d 7f79 1e3d b94a 9c39 2648 843b
00000240: 8c06 ed3b 8d88 ca3b 3207 0a39 4750 b43b
00000250: 6586 1f3d 1b5a 5a3d c090 003c 1b1b 763d
00000260: 2454 da3d a9f9 563d 33db 183a a351 e63b
00000270: 095f 473d 68cd 713e fbe2 a43c 8c50 d53e
00000280: 70dc 863e 16dc ba3e b16a 053d 6669 fd3e
00000290: a1a1 e53e 7c0f 193f 67ad 813d 4495 583f
000002a0: 0e8a f03d e6a9 ec3d 06a2 a83b d236 e83d
000002b0: 3d60 d93e bb5b 6d3e cf20 f43a 597b 343c
000002c0: c8ca b23d 2a02 c33d 0c6d 903c c8c3 393e
000002d0: be18 023e a599 c63d 22ee 473b 963f 963c
000002e0: c9d6 2d3f 1dff 8b3f 51b6 383e 6daa 423f
000002f0: cf15 5b3c 759e a93c 5bd0 a73b 0b26 ac3c
00000300: 4a84 fc3e fc06 2a3f 507d 943d a634 7a3f
00000310: ce9f 903c 4aca 983c 9811 423b 4aea ae3c

exp_avg f4 [50]
0.018905355 -0.090763345 -0.3297462 0.13919057 -0.0071117515 -0.08478126 -0.07325976 -0.016789405
0.00916194 -0.052447 0.13565223 -0.12244752 0.032517917 0.035848066 -0.025635317 0.0044663483
0.061623458 0.05483654 -0.008955538 -0.15990244 0.009147086 0.12496086 0.009349209 -0.0288663
-0.038932454 0.00042449706 0.09487046 0.01148126 0.20553264 0.013322155 0.062683575 -0.14963609
0.20333973 0.042309266 0.040244397 0.024492972 -0.004045697 -0.06381277 0.01818442 0.010551381
-0.080415465 -0.0958363 -0.041408636 0.05419322 0.082749724 0.036436398 -0.2138725 0.023739703
-0.11335496 -0.029222382
00000000: 67df 9a3c 22e2 b9bd 7ed4 a8be f987 0e3e
00000010: b209 e9bb cca1 adbd 3709 96bd ef89 89bc
00000020: f61b 163c aad2 56bd 6be8 0a3e c4c5 fabd
00000030: 8231 053d 6cd5 123d 2801 d2bc 725a 923b
00000040: e168 7c3d 489c 603d 40ba 12bc 77bd 23be
00000050: a9dd 153c 7beb ff3d 6d2d 193c 0579 ecbc
00000060: a377 1fbd 088f de39 724b c23d e51b 3c3c
00000070: 2677 523e 2b45 5a3c 3f60 803d 343a 19be
00000080: 4a38 503e 7b4c 2d3d 4fd7 243d 7ca5 c83c
00000090: c491 84bb 45b0 82bd 7ef7 943c b3df 2c3c
000000a0: ddb0 a4bd d245 c4bd 1a9c 29bd b6f9 5d3d
000000b0: b078 a93d 553e 153d 6501 5bbe c479 c23c
000000c0: a526 e8bd c763 efbc

exp_avg_sq f4 [50]
0.039054997 0.56633615 11.514161 0.5011621 0.10008836 0.5045765 0.43583646 0.08563975
0.040418655 0.2263532 0.61358404 0.9183048 0.18836549 0.29420584 0.06626386 0.018637128
2.155187 0.071698986 0.09443127 2.7807562 0.061039507 1.028908 0.01359128 0.03039087
1.4404198 7.2057155e-06 1.6313795 0.041898813 0.6352249 0.0109196035 0.33906326 1.5841225
0.65107334 1.4673295 0.09602289 0.032063894 0.0093500065 0.2845652 0.046151295 0.65566754
1.3567307 2.2942312 0.38320634 0.1361105 0.45964468 0.11459367 4.825045 0.1261389
2.657117 0.07521308
00000000: 22f8 1f3d 68fb 103f 013a 3841 294c 003f
00000010: 20fb cc3d ed2b 013f f525 df3e e563 af3d
00000020: 088e 253d 22c9 673e d813 1d3f 0616 6b3f
00000030: e2e2 403e 26a2 963e 59b5 873d e4ac 983c
00000040: 95ee 0940 ebd6 923d 2f65 c13d e9f7 3140
00000050: 9004 7a3d 42b3 833f f6ad 5e3c 46f6 f83c
00000060: ad5f b83f a0c8 f136 0bd1 d03f 179e 2b3d
00000070: 199e 223f 23e8 323c b399 ad3e 87c4 ca3f
00000080: beac 263f 74d1 bb3f a6a7 c43d 6e55 033d
00000090: c530 193c 88b2 913e 2409 3d3d d4d9 273f
000000a0: 5aa9 ad3f afd4 1240 9f33 c43e 8d60 0b3e
000000b0: 8c56 eb3e 16b0 ea3d c566 9a40 8e2a 013e
000000c0: 340e 2a40 5109 9a3d

exp_avg f4 [100, 50]
-0.00044408374 -0.0010737092 -0.0024738025 -1.0845041e-05 -0.0008154749 -0.0014395759 -0.00052491884 -0.0010096356
3.699378e-05 -0.00079746445 3.532284e-06 -0.0013214828 -1.757693e-05 0.000112616566 -0.00025829268 -0.00035838073
9.3566305e-05 -0.00012355561 -0.00053434854 -0.0016746899 -0.0006834092 6.58244e-05 -0.0006038125 0.00017844627
-1.364304e-05 7.819336e-06 -1.2895831e-05 -0.0015444655 -9.556499e-05 -6.960841e-05 -0.0002323185 -0.0020309726
-0.00013927397 -2.6355397e-05 -0.00010759292 -0.00014984202 0.00030286642 -0.0018731521 -0.0002785318 0.00014664662
0.000477511 0.0006395889 -0.00024917262 -8.792216e-06 -0.0008542389 5.632941e-05 -0.0013801254 -0.0002673609
0.00071056397 -0.00019599289 5.6393224e-06 0.00041683277 0.0012422128 0.0017999687 -0.00010071352 0.0021619727
0.0013112354 0.006066527 0.00020564317 0.006712622 0.0038449722 0.002582228 -0.00018657936 0.0018739911
0.005745737 0.0024725571 -0.00016625423 0.0005468725 0.004529967 0.0018705417 -0.0001225449 0.003658739
0.0012958534 -0.00030465942 0.010469719 -4.0648978e-05 -0.00014682791 1.4397846e-05 0.004717305 -0.0001678977
0.002279302 0.0022364222 0.003536404 0.008707258 -0.00025720117 -0.00027635667 -0.00057727034 0.0039873985
-0.00032036199 -0.00018992301 0.018764654 0.019931195 0.011545164 -0.00018126999 6.45609e-05 0.0016250226
0.00037240246 0.00049601233 0.02292948 0.0043780846 -1.8882441e-06 5.936993e-07 1.4412356e-06 3.2802177e-08
-3.0093559e-06 1.1839485e-06 2.4231288e-06 -2.8131542e-06 -2.0152233e-06 -1.1478544e-06 -4.4121194e-08 2.2773486e-06
2.4783103e-07 1.8315044e-08 -1.4414093e-06 -2.047116e-06 1.4166601e-08 -2.9807682e-06 -4.921036e-06 -1.1706004e-07
-6.176434e-07 -2.2282502e-06 2.6683279e-07 9.168839e-07 -2.4161652e-06 6.715381e-09 5.729006e-08 -3.1137864e-07
1.6237526e-07 3.0833908e-07 1.3328919e-07 2.1335207e-07 1.8772907e-08 -4.5431827e-07 5.3472655e-07 7.1712634e-07
9.66285e-07 -2.7599783e-06 8.3582086e-07 -1.8498213e-08 -2.7832968e-06 -1.9817344e-06 -1.0731554e-06 2.2604245e-07
-4.565843e-07 -2.7254637e-06 8.396629e-07 2.3927555e-07 -2.6193732e-06 -1.436314e-06 -0.0021790136 -0.0038077245
-0.008446527 9.0753914e-05 -0.0041225106 -0.0050880876 -0.0020213595 -0.0046011726 -0.0008517634 -0.0038620285
-0.00017974208 -0.0048651183 -7.501047e-05 0.00041053715 -0.001667304 -0.0024407601 0.00033123378 -0.0020869428
-0.0034809054 -0.0059927767 -0.0022830872 -0.001365502 -0.00159383 0.0004546009 -0.0017303933 3.2638258e-05
-3.70187e-05 -0.005224686 -0.00023145598 -0.00026740239 -0.0013287629 -0.007567709 -0.00014946594 -0.0015283328
-0.0004004849 -0.0005744749 0.00083770265 -0.007809283 -0.0010465967 0.0005159578 -9.030465e-05 0.0008031607
-0.0019148167 -3.040442e-05 -0.0026438523 -0.0012233055 -0.00464671 -0.0012539526 0.0006396374 -0.0005291759
-0.0003271046 -0.00081136904 -0.0018685198 -8.0495565e-06 -0.00059829815 -0.0010980753 -0.00047033853 -0.0007556657
2.57011e-05 -0.0006171509 3.5346716e-06 -0.0010345177 -2.0904536e-05 7.972637e-05 -0.00020352393 -0.00026128703
6.692687e-05 -9.256427e-05 -0.00040161537 -0.0012552756 -0.0004965496 4.6718003e-05 -0.00043987538 9.2173286e-05
-3.8383725e-05 5.9688646e-06 -1.0772034e-05 -0.0011180643 -6.721571e-05 -6.0727056e-05 -0.00017158296 -0.0015284183
-9.8874676e-05 -3.915143e-05 -9.443165e-05 -0.00013182558 0.00017970127 -0.0013803237 -0.00022827764 0.00010607939
0.00029295374 0.00040187011 -0.00023735306 -1.2751349e-05 -0.0006317859 3.979915e-05 -0.0010419342 -0.00020045953
0.00044687768 -0.00015529702 9.190678e-06 -1.1621052e-05 -2.1058075e-05 -8.9361174e-07 -5.473872e-07 -1.9949734e-05
00000000: e9d3 e8b9 b4bb 8cba 851f 22bb 19f3 35b7
00000010: 98c5 55ba 27b0 bcba b59a 09ba c055 84ba
00000020: c529 1b38 ef0c 51ba 2d0c 6d36 9b35 adba
00000030: 2b72 93b7 8f2c ec38 756b 87b9 0ce5 bbb9
00000040: 0739 c438 b58e 01b9 8613 0cba 4581 dbba
00000050: d126 33ba 350b 8a38 2c49 1eba 4e1d 3b39
00000060: 69e4 64b7 cb2f 0337 2c5b 58b7 aa6f caba
00000070: 106a c8b8 bbfa 91b8 869a 73b9 111a 05bb
00000080: 120a 12b9 c915 ddb7 82a3 e1b8 e91e 1db9
00000090: 0bca 9e39 8e84 f5ba e807 92b9 27c5 1939
000000a0: 715a fa39 16aa 273a 62a3 82b9 4882 13b7
000000b0: 01ef 5fba 3e43 6c38 53e5 b4ba 932c 8cb9
000000c0: 2445 3a3a 7183 4db9 6939 bd36 598a da39
000000d0: bfd1 a23a edec eb3a 2936 d3b8 e2af 0d3b
000000e0: c2dd ab3a b8c9 c63b eba1 5739 8ef5 db3b
000000f0: eefb 7b3b 993a 293b 84a4 43b9 b5a0 f53a
00000100: bc46 bc3b a00a 223b 8854 2eb9 fe5b 0f3a
00000110: 1e70 943b f72c f53a 657f 00b9 74c7 6f3b
00000120: a0d9 a93a b2ba 9fb9 2f89 2b3c 827e 2ab8
00000130: d1f5 19b9 478e 7137 9f93 9a3b b20d 30b9
00000140: 5860 153b f090 123b 04c3 673b e3a8 0e3c
00000150: f5d8 86b9 f7e3 90b9 f553 17ba b9a8 823b
00000160: 42f6 a7b9 1226 47b9 55b8 993c bf46 a33c
00000170: ed27 3d3c 4b13 3eb9 df64 8738 b6fe d43a
00000180: 033f c339 d306 023a 9bd6 bb3c 0976 8f3b
00000190: 936f fdb5 b55e 1f35 7a70 c135 60e2 0c33
000001a0: 57f4 49b6 29e8 9e35 099d 2236 9fc9 3cb6
000001b0: 463d 07b6 fa0f 9ab5 c47f 3db3 8dd4 1836
000001c0: a30d 8534 3553 9d32 7276 c1b5 2f61 09b6
000001d0: 5f61 7332 3509 48b6 611f a5b6 7062 fbb3
000001e0: 22cc 25b5 0c89 15b6 3841 8f34 c81f 7635
000001f0: 6725 22b6 1ebd e631 160f 7633 8e2b a7b4
00000200: 5f59 2e34 cd89 a534 411e 0f34 c515 6534
00000210: 0f42 a132 07e9 f3b4 218a 0f35 8c80 4035
00000220: 4db1 8135 1138 39b6 2c5d 6035 00e6 9eb2
00000230: adc8 3ab6 f0fd 04b6 5709 90b5 13b6 7234
00000240: 7820 f5b4 1ce7 36b6 3265 6135 c875 8034
00000250: 7dc8 2fb6 60c7 c0b5 c8cd 0ebb 048b 79bb
00000260: 4d63 0abc 2353 be38 2016 87bb f9b9 a6bb
00000270: c978 04bb 6fc5 96bb e048 5fba 161a 7dbb
00000280: 2679 3cb9 926b 9fbb f04e 9db8 5d3d d739
00000290: 7089 daba 29f5 1fbb 72a9 ad39 17c5 08bb
000002a0: e71f 64bb 0e5f c4bb d99f 15bb a5fa b2ba
000002b0: 0fe8 d0ba 8057 ee39 5dce e2ba 10e5 0838
000002c0: 8744 1bb8 d833 abbb feb2 72b9 2432 8cb9
000002d0: e229 aeba 8bfa f7bb f5b9 1cb9 5752 c8ba
000002e0: 2cf8 d1b9 5c98 16ba 4699 5b3a 04e5 ffbb
000002f0: f52d 89ba 5841 073a f161 bdb8 348b 523a
00000300: 96fa faba ff0c ffb7 7b44 2dbb 5257 a0ba
00000310: 6e43 98bb ab5b a4ba 57ad 273a 65b8 0aba
00000320: 3c7f abb9 0eb2 54ba 1fe9 f4ba 950c 07b7
00000330: 1cd7 1cba 4bed 8fba c597 f6b9 de17 46ba
00000340: b198 d737 4cc8 21ba 3235 6d36 a798 87ba
00000350: 265c afb7 c532 a738 0a69 55b9 5afd 88b9
00000360: 175b 8c38 101f c2b8 e78f d2b9 0f88 a4ba
00000370: e12a 02ba 13f3 4338 139f e6b9 284d c138
00000380: 36fe 20b8 2848 c836 89b9 34b7 038c 92ba
00000390: 29f6 8cb8 2eb5 7eb8 f3ea 33b9 3555 c8ba
000003a0: f05a cfb8 8736 24b8 9b09 c6b8 a93a 0ab9
000003b0: 316e 3c39 faeb b4ba d05d 6fb9 f076 de38
000003c0: 9697 9939 18b2 d239 fae1 78b9 a0ee 55b7
000003d0: 6f9e 25ba 03ee 2638 8391 88ba 7232 52b9
000003e0: e84a ea39 3ad7 22b9 a931 1a37 0af8 42b7
000003f0: dfa5 b0b7 88e0 6fb5 29f0 12b5 ba59 a7b7

exp_avg_sq f4 [100, 50]
1.449285e-05 7.111763e-05 0.00040549497 1.4528962e-06 3.206149e-05 0.00021590313 0.00029860623 0.00012273567
5.056449e-06 0.0001680531 3.6499882e-06 0.00041218143 4.868269e-06 2.4129115e-06 6.2226885e-05 1.9246656e-05
8.07632e-07 1.6565838e-05 9.368007e-05 0.00017453398 5.994926e-06 1.4612139e-05 2.3089106e-05 4.4092223e-05
0.0001562205 9.803087e-09 4.5045846e-07 3.851431e-05 4.9936234e-06 4.6832088e-06 4.2568972e-05 0.00026225796
3.212242e-06 0.00015790043 1.1017418e-05 2.0874108e-05 5.5334756e-05 0.00018288406 2.4858542e-05 1.5585873e-06
0.00046062074 0.0005608389 0.00030251913 2.419256e-06 2.2862974e-05 1.2811289e-05 0.000118678225 1.180976e-05
0.000709593 7.391432e-05 8.353057e-05 6.830947e-05 0.0003170252 0.00029583668 5.26978e-05 0.0007499424
0.0018201023 0.0021916036 4.4846238e-05 0.003728378 0.00078235555 0.0014283177 1.3597427e-06 0.00049535785
0.002224553 0.00040106318 1.7675702e-06 0.00010408446 0.0024220247 0.00033498454 2.5315221e-06 0.0007157276
0.0011566487 0.00028850153 0.008344943 1.3104217e-07 1.4564023e-06 1.4714185e-06 0.0011475774 8.351387e-07
0.0011136843 0.0005760594 0.0007430163 0.007657551 1.8684008e-06 5.3976646e-06 0.00032533103 0.0010889433
2.1941982e-05 2.3525795e-06 0.025747051 0.02986132 0.011153951 1.3441808e-06 9.655529e-05 0.00034413973
4.685463e-05 0.00025492432 0.03932149 0.0030215085 2.1673736e-09 3.956496e-10 1.5217402e-09 9.590564e-13
5.635102e-09 5.5045335e-10 3.3413403e-10 6.7628663e-09 1.3588055e-09 3.4817893e-09 1.9575377e-10 4.1387468e-10
1.2896788e-11 9.28584e-13 2.0726565e-09 2.577857e-09 1.1439095e-12 3.8535357e-09 1.2590241e-08 1.8694344e-09
6.447682e-10 2.777015e-09 8.957812e-11 6.18356e-11 6.3647008e-09 1.6406348e-13 7.0147507e-13 1.169288e-09
1.05566125e-10 1.0187241e-11 9.107072e-11 2.729183e-09 6.800008e-11 1.789812e-09 3.4343292e-11 5.610771e-11
8.937017e-11 7.938606e-09 5.8281616e-11 1.7478372e-12 9.3860155e-09 6.078715e-09 3.8002805e-09 1.0102749e-11
8.0944873e-10 3.3453522e-09 4.2959464e-10 2.3150912e-11 1.028033e-08 2.0226825e-09 9.611872e-05 0.0008410712
0.0048287357 1.3586584e-05 0.00016822758 0.0025684726 0.0035168042 0.0012004861 1.0445731e-05 0.0018231114
1.4914075e-05 0.004930708 5.8241192e-05 2.6468808e-05 0.00064341334 0.00012674535 9.729581e-06 5.1927214e-05
0.00059720187 0.0020411592 4.1033174e-05 5.335132e-05 0.00023973924 0.00051705074 0.001471283 1.1018586e-07
5.5432897e-06 0.00042542652 2.3607332e-05 5.601743e-05 0.00049365376 0.0030442434 1.3044313e-05 0.0017697368
0.00013014667 0.00024663945 0.00064979156 0.0018841232 0.00029396315 1.8820563e-05 0.0047747972 0.0060451687
0.003282951 2.8410435e-05 0.000263436 4.0573566e-05 0.0014169979 0.00013772222 0.0075413305 0.0007371255
7.6436745e-06 3.8491246e-05 0.00021957202 7.284421e-07 1.7163142e-05 0.00011623169 0.00015893378 6.5355904e-05
2.6873652e-06 8.893044e-05 1.8577955e-06 0.00022140557 2.6239645e-06 1.2181686e-06 3.2709468e-05 1.02108415e-05
4.427909e-07 8.819999e-06 4.930801e-05 9.45098e-05 3.2271216e-06 7.665256e-06 1.23846885e-05 2.3271125e-05
8.115057e-05 5.2310956e-09 2.5446792e-07 2.1092406e-05 2.5338693e-06 2.518311e-06 2.2361412e-05 0.00014166899
1.632544e-06 8.250784e-05 5.8221935e-06 1.1054713e-05 2.919726e-05 9.862229e-05 1.3192313e-05 8.5409164e-07
0.00023891394 0.0002910372 0.00015826272 1.270464e-06 1.2389367e-05 6.76302e-06 6.434527e-05 6.2780273e-06
0.00036796115 3.8923692e-05 6.0110823e-09 2.8850346e-08 1.386816e-07 2.3462846e-10 5.3959176e-10 7.521003e-08
00000000: 5126 7337 fd24 9538 9d98 d439 2201 c335
00000010: c379 0638 0e64 6239 408e 9c39 9bb2 0039
00000020: 91aa a936 6937 3039 52f2 7436 0e1a d839
00000030: 1d5a a336 81ed 2136 ce7f 8238 e173 a137
00000040: 0ccc 5835 def6 8a37 1b76 c438 1c03 3739
00000050: 0628 c936 a926 7537 7aaf c137 aaef 3838
00000060: 1fcf 2339 6f6a 2832 8ad6 f134 6d8a 2138
00000070: e68e a736 7524 9d36 168c 3238 ab7f 8939
00000080: e691 5736 1392 2539 73d7 3837 ce1a af37
00000090: 3e17 6838 91c4 3f39 5087 d037 a730 d135
000000a0: 787f f139 4305 133a 6e9b 9e39 805a 2236
000000b0: ddc9 bf37 11f0 5637 e3e2 f838 8822 4637
000000c0: fb03 3a3a 7302 9b38 222d af38 5e41 8f38
000000d0: 6736 a639 871a 9b39 d507 5d38 c897 443a
000000e0: 8090 ee3a 02a1 0f3b 4819 3c38 ce57 743b
000000f0: fe16 4d3a 6436 bb3a 6780 b635 e7da 013a
00000100: cec9 113b ca45 d239 403d ed35 eb47 da38
00000110: d5ba 1e3b dda0 af39 38e3 2936 ab9f 3b3a
00000120: b19a 973a 0542 9739 3ab9 083c 99b4 0c34
00000130: 9a79 c335 8e7d c535 4f6a 963a 4b2e 6035
00000140: 0bf9 913a b102 173a fbc6 423a 32ec fa3b
00000150: c3c5 fa35 961d b536 3191 aa39 e0ba 8e3a
00000160: 0c10 b837 02e1 1d36 7beb d23c ba9f f43c
00000170: 10bf 363c b369 b435 ba7d ca38 a76d b439
00000180: c785 4438 5da7 8539 920f 213d 8004 463b
00000190: d7f0 1431 bb82 d92f 7925 d130 a6f9 862b
000001a0: e29e c131 b64e 1730 2fb1 b72f cd5e e831
000001b0: b8c0 ba30 4944 6f31 ca3b 572f af87 e32f
000001c0: f8e1 622d c4af 822b 8f6e 0e31 2426 3131
000001d0: affd a02b 0f68 8431 774c 5832 7077 0031
000001e0: 873b 3130 c4d5 3e31 00fc c42e 59fa 872e
000001f0: 80b0 da31 14b8 382a 9b72 452b aab4 a030
00000200: 7224 e82e 4137 332d 4244 c82e 4c8c 3b31
00000210: a488 952e 69fd f530 1c0b 172e aac3 762e
00000220: ef86 c42e 5c62 0832 a229 802e 79fc f52b
00000230: 2240 2132 f1dc d031 9f93 8231 bdba 312d
00000240: e47f 5e30 0fe4 6531 122c ec2f 38a3 cb2d
00000250: 5f9d 3032 68ff 0a31 5893 c938 557b 5c3a
00000260: 5f3a 9e3b eff1 6337 3f66 3039 d253 283b
00000270: 2f7a 663b a159 9d3a 1340 2f37 78f5 ee3a
00000280: 7737 7a37 c791 a13b 0148 7438 5509 de37
00000290: bdaa 283a f2e6 0439 3b3c 2337 6ccc 5938
000002a0: 8a8d 1c3a f8c4 053b 091b 2c38 8bc5 5f38
000002b0: 8362 7b39 b08a 073a 11d8 c03a 519f ec33
000002c0: 7f00 ba36 c80b df39 5c08 c637 42f4 6a38
000002d0: 8b68 013a ee81 473b e6d8 5a37 83f6 e73a
000002e0: fb77 0839 634f 8139 c656 2a3a aff4 f63a
000002f0: 111f 9a39 dae0 9d37 e775 9c3b 8d16 c63b
00000300: c726 573b f252 ee37 c81d 8a39 892d 2a38
00000310: 8fba b93a 8769 1039 441d f73b a83b 413a
00000320: 553d 0037 a971 2138 ea3c 6639 298a 4335
00000330: 91f9 8f37 6ac1 f338 76a7 2639 af0f 8938
00000340: 9558 3436 2b80 ba38 5e59 f935 1b29 6839
00000350: 5e17 3036 f47f a335 8631 0938 3b4f 2b37
00000360: b8b8 ed34 9bf9 1337 13d0 4e38 9033 c638
00000370: 8791 5836 069a 0037 d5c7 4f37 5c36 c337
00000380: 612f aa38 34bd b331 ce9d 8834 99ef b037
00000390: 8b0b 2a36 4100 2936 c494 bb37 fb8c 1439
000003a0: c91d db35 0f08 ad38 435c c336 a177 3937
000003b0: a3ec f437 70d3 ce38 8e54 5d37 bb44 6535
000003c0: f984 7a39 5a96 9839 53f3 2539 d084 aa35
000003d0: eddb 4f37 e6ed e236 1bf1 8638 d8a7 d236
000003e0: e9ea c039 ff41 2338 0a8a ce31 95d2 f732
000003f0: 82e8 1434 05fd 802f 6552 1430 2783 a133

exp_avg f4 [100]
-0.0012394348 0.014359355 -7.8271165e-07 -0.0056191823 -0.0009895472 -2.8092754e-05 0.000268521 -0.013966394
-0.0014360787 -0.00564165 -0.019450583 0.005576656 0.001054492 -0.017939255 -1.576602e-06 2.6753412e-06
0.004801447 0.0005969839 -0.00014948592 0.00014909294 9.404692e-06 -3.7493078e-06 -0.0062077087 -0.0017340636
-0.00067465473 4.9456007e-06 -0.018160177 -3.6469916e-07 -0.000757361 1.5335574e-05 -0.002319188 0.0021911983
0.0065787113 0.014835654 4.6768896e-06 0.0044380226 0.014916828 0.0009407605 8.3511e-06 -0.0011124955
-0.0059257876 0.00017044859 0.01861362 -0.0061067273 -0.003536463 -0.004944333 1.759437e-05 -0.02247298
-0.003433135 -0.00079477194 -0.0016308312 -0.0030717696 6.673145e-05 -0.00841846 -0.0031377512 -0.0012203952
1.4182134e-05 0.0015114006 -0.005828082 -0.007915259 -0.00025251164 -0.0056294957 0.012418357 -0.0010112784
0.018601287 4.664937e-06 -0.0052497326 -0.004260702 -0.0035694018 0.005958888 -0.0061418423 0.00022597112
-0.0016136193 -0.0053651026 8.177317e-07 0.008799672 -8.8290135e-06 -0.0028899678 0.0007319685 9.839769e-06
0.0023294825 -0.0009878692 0.014496776 0.0028969462 9.0573263e-07 3.3574267e-06 -0.0012741943 -0.0011487006
-0.0007319977 4.399217e-06 7.5282014e-06 1.1946273e-05 -0.0060690385 -0.006419194 -0.0013432885 -0.0060030427
-0.020461215 0.01209663 0.009672978 0.00064549345
00000000: 8874 a2ba 8043 6b3c 891b 52b5 1e21 b8bb
00000010: b2b3 81ba bba8 ebb7 47c8 8c39 4dd3 64bc
00000020: ce3a bcba 97dd b8bb d456 9fbc 62bc b63b
00000030: e136 8a3a 58f5 92bc a29b d3b5 038a 3336
00000040: 7555 9d3b e97e 1c3a 52bf 1cb9 d555 1c39
00000050: d8c8 1d37 9e9c 7bb6 096a cbbb 8549 e3ba
00000060: 50db 30ba 63f2 a536 a7c4 94bc dfcb c3b4
00000070: a389 46ba e5a4 8037 85fd 17bb 359a 0f3b
00000080: 3b92 d73b 3e11 733c 2dee 9c36 d56c 913b
00000090: b665 743c 5e9d 763a b41b 0c37 28d1 91ba
000000a0: 1c2d c2bb 72ba 3239 977b 983c f11a c8bb
000000b0: 01c4 67bb 1204 a2bb 9f97 9337 4119 b8bc
000000c0: 73fe 60bb 3e58 50ba 9dc1 d5ba be4f 49bb
000000d0: 2df2 8b38 95ed 09bc bba2 4dbb abf5 9fba
000000e0: cdef 6d37 301a c63a 7ff9 bebb 01af 01bc
000000f0: 8a63 84b9 a277 b8bb 5d76 4b3c df8c 84ba
00000100: ba61 983c 8187 9c36 f305 acbb 5c9d 8bbb
00000110: a0ec 69bb c742 c33b 8241 c9bb a9f2 6c39
00000120: 1480 d3ba becd afbb 1882 5b35 802c 103c
00000130: 5320 14b7 9d65 3dbb 93e1 3f3a 7c15 2537
00000140: 3baa 183b 647b 81ba e383 6d3c b1da 3d3b
00000150: 7921 7335 2750 6136 de02 a7ba ff8f 96ba
00000160: 89e3 3fba fc9c 9336 c29a fc36 da6c 4837
00000170: c9de c6bb 1a58 d2bb 4811 b0ba 2cb5 c4bb
00000180: 479e a7bc f230 463c 697b 1e3c 5536 293a
