PolicyDistillation/teacher.pt (torch, 97821 bytes, 24 tensors)

weight f4 [50, 4]
00000000: 0950 4bbe 98d8 753e 0a4f 1a3f ddbf cd3e
00000010: d019 6fbe dfac 8dbe 6671 313f 6f2f b3bd
00000020: 5117 0f3f cb14 30bf 2fda 8cbf 6595 4abe
00000030: eabe 8cbd 0507 083e 6ca8 9e3e d111 78bd
00000040: 8ebe 8cbe 960d 103e 0c40 05c0 1bd3 40be
00000050: 4e9a d0bb d038 f5be 4922 1ebf b1e8 33be
00000060: 918c b7bc c9db 07be 7e23 86be b6e0 0dbe
00000070: d6ee 87be 2a5b eebe 8c44 a5bf 4d8f c7be
00000080: 7e75 203f 70cd 4fbd 1599 9cbf 049c d5be
00000090: 87e2 babd 7553 683e f760 5b3f ba6a 013f
000000a0: c681 6cbe 07ce 97bd 37d5 3b3f 86e6 08be
000000b0: a65f 4dbe c45b 173d ee0d 2a3f 98f7 723e
000000c0: 5ef8 9dbe ba27 873c 9187 c8be 5d8b c13d
000000d0: 0a5c 483e a045 e23d 5c5c b1bf 345a d9bd
000000e0: 37e9 b53c 2338 bdbb aa40 5b3f 741e 983e
000000f0: 818f d4bd 8a9c 013e a8c3 2f3f 20c8 ac3c
00000100: 95ab 7bbe 2e21 af3e 520e 263e 7342 c4be
00000110: 02ae 6c3e 15c5 94be f09e 49bf 0c0d 93bd
00000120: 827c a43e b43b 11be 4f82 aebf 37ea a0be
00000130: 32fa 06be 1c94 d43c 0a7b d43e a8f2 cabe
00000140: ec93 503e c05b a3be 8840 55bf 6520 f33d
00000150: c729 973d b490 84b9 b92b 2b3f c0f8 57be
00000160: a077 f03e b886 fdbe 0fea c4be 977c 473e
00000170: 0701 633e a8c3 d83d 95bb 913e 8745 6e3e
00000180: 7487 5bbe a85d 943e 6190 6ebe a748 b53d
00000190: 638f 40be b0a1 b03e d004 b2be 5740 143e
000001a0: f8e6 adbd feaa 18be f7b8 88bc ed7f 8b3e
000001b0: 437b e2be d075 9bbe 274f 883e 870f bb3e
000001c0: 673e 6fbe 969e 103e 1f08 843f 372f 883e
000001d0: c16c 5bbe 53d6 a8be 39f1 8bbe 8761 89be
000001e0: 114e d6bc 42ec 013f dabd eebe 4caa b53e
000001f0: 8d1c abbc 0179 b13d f6fb 33bf c2dd 343d
00000200: 09da 89be db0b 293e d37f 33bf 8b38 97be
00000210: 42a1 133e 3438 6e3c ba90 b73f cb3a d33e
00000220: e8b2 50be 6534 30be e245 713e ef64 7a3e
00000230: 725f 683e 5356 33be 8f1c 6abf 1329 37be
00000240: 8f61 5b3e 61aa 483e e4a2 7fbe 8fc6 e7bd
00000250: 0124 76be 7f15 9f3d 3608 1b3f ff37 64be
00000260: 4ed7 0fbe dd35 7cbd a15e babe 8ad2 ea3c
00000270: d987 9e3d e76d f0bb 3121 44bf 8a89 b03c
00000280: 1cd4 413e c641 a43e 8011 4c3e b40f 10be
00000290: b839 0bbf 8d9c 233f 34d5 b43f 2485 383f
000002a0: 8642 4abe e69a 44be ae91 6cbf 0c9a dc3d
000002b0: df77 2a3f 1886 abbe 88cb 48bf 91b3 fabe
000002c0: bff3 7a3e 2b35 243c 5f1e 7e3e b251 aebe
000002d0: fce1 713d bfb0 753d a685 0dbe bd0e a03e
000002e0: 38b6 18be 5785 be3e 53cc dfbe 7328 82be
000002f0: 4eb3 513e 1874 4dbe 15a2 1cbe 2ac2 fe3e
00000300: 6876 29be fa21 1b3f 8640 1cbe bddf 06be
00000310: f6b5 81be a948 0a3e 951d c3bf f8f3 21be
-0.1985475 0.24008405 0.60276854 0.40185443 -0.2334969 -0.27670953 0.6931366 -0.087492816
0.55894953 -0.6878173 -1.1004084 -0.19783552 -0.068723515 0.13283928 0.3098787 -0.060563866
-0.27489132 0.14067683 -2.082034 -0.1883053 -0.006366051 -0.47894907 -0.61771065 -0.17569233
-0.022405894 -0.13267435 -0.26198953 -0.13855252 -0.26549405 -0.46553928 -1.2911544 -0.38976517
0.6267928 -0.05073303 -1.2234217 -0.41720593 -0.09125238 0.22688086 0.8569483 0.50553477
-0.2309638 -0.074123435 0.73372215 -0.13369188 -0.20056018 0.03695275 0.66427505 0.23727262
-0.30853552 0.016498435 -0.3916593 0.094504096 0.1956636 0.11048436 -1.3856311 -0.10612908
0.022205932 -0.0057745143 0.85645545 0.29710734 -0.10378934 0.12657371 0.6865792 0.02109152
-0.24577172 0.34205002 0.162164 -0.38331947 0.23113254 -0.29056612 -0.78758144 -0.07180223
0.32126242 -0.14182931 -1.3633517 -0.31428692 -0.1318138 0.02594953 0.4150012 -0.39638257
0.20368928 -0.31905937 -0.8330159 0.11871413 0.07381015 -0.00025284814 0.6686359 -0.21090984
0.46966267 -0.49516845 -0.38459823 0.19481121 0.2216836 0.105841935 0.28463426 0.2326871
-0.2143839 0.28977704 -0.23297264 0.08851748 -0.18804698 0.34498358 -0.34769297 0.14477669
-0.084913194 -0.14908978 -0.01668976 0.27246037 -0.44234666 -0.3036332 0.26622888 0.36535284
-0.23363648 0.14122996 1.0314978 0.26598522 -0.21428205 -0.32976016 -0.27332476 -0.2683222
-0.026160272 0.50751126 -0.4662922 0.3548149 -0.020887638 0.08665658 -0.70306337 0.044156797
-0.2692416 0.16508429 -0.7011692 -0.29535326 0.14416984 0.014539767 1.4341042 0.41255793
-0.20380747 -0.17207487 0.23561814 0.24452566 0.2269266 -0.17513399 -0.91449827 -0.17886762
0.21423934 0.19596244 -0.24964482 -0.11317169 -0.24037172 0.07767772 0.60559404 -0.22286986
-0.14046976 -0.061574806 -0.3640032 0.028664846 0.07740755 -0.00733732 -0.76613146 0.021549959
0.1892857 0.3208143 0.1992855 -0.1406849 -0.54384947 0.6391075 1.4127564 0.72078156
-0.19751939 -0.19199714 -0.9240979 0.107715696 0.6658916 -0.33500743 -0.78435564 -0.48965123
0.24507044 0.010022442 0.24816273 -0.34046704 0.059053406 0.05998301 -0.13820514 0.31261244
-0.14913261 0.37211105 -0.43710575 -0.25421485 0.20478556 -0.20063818 -0.15296204 0.4975751
-0.16549075 0.6059872 -0.15258989 -0.13171287 -0.25334138 0.1350428 -1.5243403 -0.15815723

bias f4 [50]
00000000: 3cee cf3e 6f42 24bf a280 bf3e 8918 a8bd
00000010: 7983 02bf 65fe 6c3e c54c 00bf d4ed 7d3d
00000020: b704 d2be 132d 39be 65b4 c73d a5a7 c23e
00000030: d7a9 23bf 366a b0be 0642 083f a3f6 323e
00000040: 5971 fd3e 1bf7 0a3f 535f 80be d996 f83e
00000050: 43f5 1f3e d378 d03e 3f08 a7bd dbc8 4f3e
00000060: 5a66 613d 26a1 c73e 3622 f23e 58d7 f3be
00000070: 88a7 37be 1c10 4c3e d6c9 a53c 95a3 373e
00000080: 4560 13be bbab c7be 1c67 e03e 1ca1 a63e
00000090: e59e c13e a9ad 013f afb1 123f 9447 9d3e
000000a0: 7f63 823e af26 08bf bf47 073e 5af2 e9be
000000b0: 925e 493e 9f8c 19bf e0b2 16bf 359b 18bf
000000c0: 061a 04bf 86d9 8fbe
0.40611446 -0.6416387 0.37402827 -0.08207805 -0.5098186 0.23143919 -0.5011714 0.06199439
-0.41019222 -0.180836 0.097512044 0.38018528 -0.6393103 -0.34456033 0.53225744 0.17476897
0.4950054 0.54283303 -0.25072727 0.48552588 0.15620904 0.40717182 -0.0815587 0.20291464
0.05502925 0.38990134 0.47291726 -0.47625232 -0.17935002 0.1992802 0.020237844 0.17933495
-0.14392193 -0.38998207 0.43828666 0.32544792 0.3781654 0.5065561 0.57302374 0.30718672
0.25466534 -0.53184026 0.13210963 -0.45692712 0.19664982 -0.59980196 -0.5886669 -0.5961183
-0.5160221 -0.28095645

weight f4 [100, 50]
00000000: cd7a 8e3c 0113 173f e0f0 54bd 5700 e0bd
00000010: c7b7 cc3e ea23 6b3d a10a 9a3c 539c 7c3e
00000020: fda9 d63d 19f0 c83d cb42 d8bc d047 bcbd
00000030: 6452 f13e 7ad5 603d e05e b8bd 8d6a f5bd
00000040: 3ac1 98bd d025 2abe 3362 163e 5949 4fbd
00000050: b82c 093a 3fe8 4e3c f485 ab3d e349 c6bd
00000060: f6e6 613d 2921 27be 3c6e 38be 4e1a 773e
00000070: f17c 4b3d 6056 453d 06b9 0b3d d6a3 0ebe
00000080: 54c5 293e ade2 0f3e 923f 0cbe 05c3 c43c
00000090: 6d01 debd b6eb 4ebe 3f54 26be bf6e aabd
000000a0: 42a8 31bd 8d67 963f c2c9 a8bd d119 0a3e
000000b0: 7d67 40bd 417d 4a3e d98b 51bd 2adf ea3d
000000c0: 5493 62bd 4367 4ebb e648 313b 2aa2 313f
000000d0: 54a8 fcbe 170f 1e3e 4742 3bbf db24 98be
000000e0: 261d dc3d 1332 cfbd 5f19 31bf f982 d93e
000000f0: bf8a 743e b6b9 1d3b 67db e63e 1e3e 12bf
00000100: 2131 84bd 72ef b83d cb26 153e 2d75 75be
00000110: 5ad2 83bf 9b55 603e 7cf3 b3be d2e1 94bd
00000120: 8c93 c0be 3eb7 8d3d 811d 543e 4c7a b8bc
00000130: 9a1a 33be c37c 033f 8364 4b3f 3835 8fbd
00000140: 631f 91be 6d8c 26bd ea6a 523e 0963 3d3f
00000150: e9b8 ad3d a450 0dbf 8519 643c 341c 813e
00000160: 0e57 5abd dc68 98be 108d e23d ebf7 6a3f
00000170: ff91 77be 0b37 10bf be20 003e dcdd d83e
00000180: aefa 34be 8a4d 523d 5e35 00bf 510c b2be
00000190: 0872 a7bd 7889 183f d272 acbd d33e 18be
000001a0: 2c1b d63d 54e0 b3bd cca6 db3c 5296 ea3d
000001b0: 619b f6bc 2f8b 823d 1d0f b7bc 3d21 2f3d
000001c0: d6b0 153f 481d cebd 2a50 08be 2b88 24be
000001d0: 41e0 a23c 270c 7a3d 8972 8cbd 40fe 1d3d
000001e0: 328d 71bd 71c6 cebd ac75 06bd 470e 26bd
000001f0: 6f1a 063e 45d6 aabd a776 f93d ca9a 7ebd
00000200: d009 39be 8c70 d73d 5250 f7bd a3db 00be
00000210: c12b a6bc f6ff 3d3e ce5b cebd 87ed 51bd
00000220: 539a ca3d 7102 6dbd aa5a 133d 3af4 68bd
00000230: 00f3 223c 596a 243f e1b1 d4bd d300 01be
00000240: efb5 2ebd fec4 6fbd f131 e6bc bebd c6bb
00000250: 79ff 5dbd c1df f0bd 0653 c539 510c 823d
00000260: b719 2e3e d66b bebd 6771 90be a61f d03c
00000270: cbb9 613c 2e48 3e3e 1a05 1abd 59e4 d83c
00000280: 6dc0 c13a 95c0 943d a2cb 173d 8bec 123e
00000290: 8fa6 0f3e 4293 193d 9719 92bd f484 1abe
000002a0: 19ec febd f251 05be 0735 e1bd f4e8 25be
000002b0: b629 3ebd da24 80bd 56ac 413d 1127 883d
000002c0: d843 e9bd 72d4 fdbd 31b7 d73d d8ce 8a3a
000002d0: a57a c0bd 5b58 573c 8136 81be 2e6e 1dbe
000002e0: 6925 a2bd e209 a8bd 278e a0bc b54d f63c
000002f0: aa46 7dbd aec1 1e3d 68c1 123e e206 793e
00000300: 0176 5bbe ed9e 09be 8b26 36be ea67 cb3e
00000310: 3433 d4be 1b23 fdbd 83f2 21be 1fa1 5fbe
00000320: a75c ac3d 5bb8 8f3e cb3c b53d 9521 cc3d
00000330: 3075 e6bd c72c 353c 9585 a83d 1648 2bbc
00000340: 02a9 fcbd fbb6 22be 004a 95bb ea10 4abd
00000350: f4a6 f03e 0130 17be 127d 37be 157b 9fbc
00000360: f7b3 e93d 3fe0 6fbe 743a 9dbd a352 9ebc
00000370: 0904 873e d837 173d b18f b73d af6e b83d
00000380: 213e 09be 64b1 03be e443 16be 1233 c13d
00000390: e0cf c73d 1806 49be ec18 05be 9af8 0dbe
000003a0: 23d4 2cbe 2e0d 9dbd 28c7 f5bb beaa 973c
000003b0: 5310 dfbd 9f8c c9ba 9a47 c8bd 6cfd 9ebd
000003c0: b8ef 833d d691 b93e 7ab9 2fbe 59bb 443d
000003d0: 2eda fd3d b72e 103e a920 bb3d 7f81 cbbc
000003e0: f034 a13d 57fb f5bc 2c31 7c3b e856 42bf
000003f0: 97f3 2bbd 5645 1cbe 7baa 2dbf 71f0 d63c
0.01739254 0.5901337 -0.05198753 -0.10937565 0.3998396 0.057407297 0.018803896 0.24669008
0.104816414 0.0981142 -0.026399037 -0.09193385 0.47133172 0.054891087 -0.09002471 -0.119832136
-0.0745873 -0.16615987 0.14685898 -0.05060706 0.0005232799 0.012628614 0.08375159 -0.096820615
0.055151902 -0.16321243 -0.18010801 0.24131128 0.0496797 0.048178077 0.034112 -0.13929686
0.16579181 0.14051314 -0.13696125 0.024018774 -0.10840116 -0.20207104 -0.16243075 -0.083219044
-0.043373354 1.1750351 -0.08241607 0.1348641 -0.046973694 0.19774343 -0.05115876 0.114683464
-0.055316284 -0.0031494654 0.0027051507 0.6938807 -0.49347174 0.15435444 -0.73148006 -0.29715618
0.10747747 -0.10116973 -0.6917934 0.42482737 0.23881052 0.0024066991 0.45089266 -0.57126033
-0.06454683 0.090300456 0.1456558 -0.2397048 -1.0298569 0.21907656 -0.351467 -0.07269634
-0.3761257 0.06919716 0.2071438 -0.022519253 -0.17490616 0.51362246 0.79450244 -0.069925725
-0.2834426 -0.040661264 0.20548597 0.7397924 0.084825344 -0.5520117 0.0139221 0.2521683
-0.053305678 -0.297675 0.11062062 0.9178454 -0.24176787 -0.5633399 0.1251249 0.42356765
-0.17673752 0.05134348 -0.5008143 -0.34775022 -0.081760466 0.5958476 -0.08420338 -0.14867716
0.104544014 -0.087830216 0.026812933 0.114544526 -0.030103387 0.063742034 -0.022346074 0.042756308
0.58472955 -0.10064179 -0.1331183 -0.16067569 0.019882323 0.061046746 -0.06857783 0.03857255
-0.058972545 -0.100964434 -0.032827064 -0.04054096 0.13096021 -0.0834165 0.12180834 -0.062159337
-0.1807015 0.105195135 -0.12075867 -0.12583785 -0.020284535 0.18554673 -0.10076104 -0.051251914
0.09892716 -0.057863656 0.035975136 -0.056873538 0.009945631 0.64224774 -0.1038549 -0.1259797
-0.042653974 -0.058537476 -0.028099986 -0.0060650995 -0.054198716 -0.11761428 0.00037636625 0.063500054
0.17001997 -0.09297912 -0.2821152 0.025405716 0.013777207 0.18582222 -0.03760252 0.026476072
0.0014782079 0.072632946 0.037059434 0.14348046 0.14028381 0.03749395 -0.07133787 -0.1508978
-0.12447376 -0.13019541 -0.10996442 -0.16202146 -0.046426497 -0.06257029 0.047283493 0.06648076
-0.11389893 -0.12394036 0.10532988 0.0010590209 -0.093983926 0.013143624 -0.25236896 -0.15374061
-0.07917292 -0.0820501 -0.019599034 0.03006635 -0.06183497 0.038758926 0.14331591 0.24319032
-0.21431734 -0.13439532 -0.1778814 0.39727718 -0.41445315 -0.123602115 -0.15815167 -0.21838807
0.084161095 0.2807034 0.08849486 0.09967343 -0.112528205 0.011058039 0.08228604 -0.010454198
-0.12336923 -0.15890114 -0.0045559406 -0.049332537 0.47002375 -0.14764406 -0.17918804 -0.01946787
0.11411279 -0.23425387 -0.07677165 -0.019326514 0.26370266 0.03691849 0.08962954 0.09005486
-0.13402607 -0.12860638 -0.14674336 0.09433569 0.09756446 -0.19631231 -0.12997788 -0.13864365
-0.16877799 -0.076685295 -0.007500548 0.018514033 -0.108917855 -0.0015376991 -0.09779282 -0.0776318
0.06442207 0.36244076 -0.17160597 0.04803023 0.1239513 0.1408032 0.09137089 -0.024842022
0.07871425 -0.030027075 0.0038481457 -0.7591386 -0.041980352 -0.15260825 -0.6783826 0.026237698

bias f4 [100]
00000000: 7ca1 dbbd 1a70 ccbc e5fd 4bbe 7a01 18be
00000010: 3098 113c d8be 893e 38e4 723e 8ce3 66be
00000020: d5fe 763c 1d2c 463d 0aaf 3f3d 2952 01bd
00000030: 6508 163e aa71 3bbe 800c fc3d ea21 b0be
00000040: 3942 81be 91da 413e 1c98 23bb 8798 a03d
00000050: 2532 2cbe b5d9 5ebe 704d 8ebe ff27 883e
00000060: d5db a23e 414a 4d3e 320c 0d3d 9c28 16bb
00000070: b25e a53e c89e 54be cb60 35be b87c 303e
00000080: 4a85 2b3e 5363 97bd 3521 a73e 268e 1d3e
00000090: eac9 0fbe 53bc 613e a01f 893d 7021 9f3e
000000a0: 9fb4 833d 6745 bf3c c6dc b23d a770 3ebe
000000b0: 91f1 c2bd 646e d1bd 49cd 583d cb52 8e3e
000000c0: ef63 1dbe bbfd 4e3e fb14 85bc 13a4 d43d
000000d0: 30c4 f3bd 6137 f3bd c48c 10bd 1ff8 873e
000000e0: 9baa ddbd c8f8 a6bc 20dc 87be 7c0f e8bd
000000f0: 3f45 773e 87f9 5c3e e8ce b33e 4136 833e
00000100: 8161 883e f3b7 d93c 9a40 1b3e 6128 b5bd
00000110: cdd6 79be 2732 98bb f7dd 303e 1ef2 1cbe
00000120: 54a1 5f3c df3b 903e abe9 02be 7702 d73d
00000130: 70d3 bbbb ddd6 873e 5b14 1dbd ad81 2f3e
00000140: 26d1 98bd bbb0 1bbe 58c5 b6bd 4916 53be
00000150: 3c61 933e 40cc 48be e61b 123e 2b9e 323e
00000160: ce8f 58be aaa3 5d3e 3354 613e be80 cf3d
00000170: a371 52bb 000d 8e3e f932 bdbe 751c 2a3e
00000180: dcd9 12bc c6a3 debc 7370 e1bd 61a0 553e
-0.1072416 -0.024955798 -0.19921072 -0.14844313 0.008886382 0.26903415 0.23719871 -0.2254774
0.015075405 0.048381913 0.04679779 -0.031572495 0.1465164 -0.18305078 0.12307072 -0.34400874
-0.25245836 0.18931033 -0.002496249 0.07841592 -0.16816004 -0.21762736 -0.27793455 0.26593015
0.31808344 0.20047857 0.03443546 -0.0022912389 0.3229881 -0.20763695 -0.17712705 0.17235076
0.16750064 -0.073919915 0.32642522 0.15386257 -0.14041868 0.22044496 0.06695485 0.31080198
0.06430935 0.023348523 0.087335154 -0.18597661 -0.095187314 -0.102261335 0.05293015 0.2779754
-0.15370153 0.20213978 -0.016245356 0.10382857 -0.11902654 -0.11875797 -0.035290495 0.2655649
-0.10823556 -0.0203823 -0.2653513 -0.113310784 0.24147509 0.21579562 0.35118794 0.2562733
0.2663689 0.026576972 0.15161362 -0.08845592 -0.24398346 -0.0046446505 0.17272173 -0.15326735
0.0136493035 0.28170678 -0.1278445 0.10498517 -0.0057319924 0.26531115 -0.03834949 0.17139311
-0.07461767 -0.15204136 -0.08924359 -0.2061397 0.2878512 -0.19609165 0.14268455 0.17443149
-0.21148607 0.21644464 0.22004776 0.101319775 -0.003211119 0.27744293 -0.36952952 0.16612418
-0.008963075 -0.027177703 -0.11007776 0.20861961

weight f4 [2, 100]
00000000: b8e5 d2bd bcf6 12bf b155 18bc 41b0 98bc
00000010: 86e8 eebc 3003 083e afc6 333e 6600 77bf
00000020: f86a ee3c 2d13 48b9 329c 80bd bf3f 643c
00000030: e57b 623e 908f 74be 149c 4c3e 3c81 4ebe
00000040: 1d6f 2cbe 6bd5 6c3e deee 36be c848 3d3e
00000050: e412 6dbe 5ad1 f6be d05b 4abe 8bfd 5b3e
00000060: a5fc 033e 48f3 b83d 6872 f9bb 1258 f6bb
00000070: a36e 323e fb15 1dbd da37 09bf f492 5f3e
00000080: 1d5a 5b3d 9560 5bbe 2cb1 4b3e 382b 773e
00000090: 0248 11bd 2141 7e3e 6b5a 943d 0a42 0f3e
000000a0: ea8f cd3d 9ed6 0fbe 8300 993b a18a 33bf
000000b0: d804 ad3c 6291 5bbe 33a4 c53c b6ed 343e
000000c0: 2c02 18be 04c8 7f3c e9e8 c53e fbe9 bbbd
000000d0: 18a4 f4bd f9a8 22be 39cb 873c 0cf1 303e
000000e0: 6eb6 3abd 20ed 45bf 98b0 63be c861 5abc
000000f0: ac40 6d3e 19e5 4f3e a509 6e3e 9141 453e
00000100: e66b 813e 8ef9 7abf 23e4 443e 1c00 88bc
00000110: c1b1 35be fd8b 04be 2118 7c3e c553 7ebf
00000120: 11e7 233a 3731 573e 82c3 32bf c44c 253e
00000130: a810 cfbe c31d 513e 0415 853e dfa5 7c3e
00000140: 5b14 51be e43a 23be b05c 0e3d d9c7 7fbe
00000150: fec3 5a3e 8849 11bf cc35 373e 93f3 703e
00000160: 73e8 80be 86ee c53d 3337 cc3d 5a16 413e
00000170: 3e8d 57b9 1c9a 103e 893a 57be 3309 473e
00000180: 1ba4 3ebf 6746 a6ba 82a6 6fbf cd1b 5d3e
00000190: 912e c3bd d85a 70be 3985 8dbd 512d 20bc
000001a0: 04db 80bc d050 463e 2a16 3f3e 0934 21be
000001b0: 745f 90bc de28 aa3c f81a 693d 1ad8 81bc
000001c0: c640 763e b76d 17be 35db 013e cd65 33be
000001d0: f53d 46be e063 813e f0fc 093e 408c 3c3e
000001e0: 711c 983d 1b3d 82bf 0671 64be f114 c03d
000001f0: 524e 0c3e 9f4c 483e e042 4cbd 6fc2 063c
00000200: b751 8f3e f012 a6bd cc31 8fbf 9ae8 4a3e
00000210: 7416 233e 2e6f 96bd a11d 083e 47ed 3a3e
00000220: 9170 563d 66ac 953e 05da 333e 0024 383e
00000230: 1f3b 92be d397 823d e549 c4bb 5ff9 18bf
00000240: c076 a73c ef82 3dbd e8ba 2e3e 3975 4d3e
00000250: d896 24be ef6a 7b3d 7e99 a03d 1607 853d
00000260: 70d8 913d ea65 b13d 995e 83bc e50f e33d
00000270: 86da 88bf 971a 30bf fca0 6dbe f1e0 a9bb
00000280: ab0f 693e a50e 833e 44ed 9a3e 57ca 463e
00000290: cd00 493e ce94 3d3e 193b 523e edda a7bb
000002a0: 4a8d 37be cd08 e53c 22bc 1e3e f51a 58bf
000002b0: 9a63 863c 650b 813e be89 813e 3bb6 5b3e
000002c0: f688 533c 0c27 633e 4c1e a5be 8bbf 673e
000002d0: 161b 00be 5ef7 0fbe 730a 81bc 7087 53be
000002e0: 0d93 543e e46e 77be c3c0 253d c7a0 853e
000002f0: 31f0 24be d12b 1e3e e556 133e 0895 1a3e
00000300: 46af 00bc a4e8 4a3e 2126 41be ba66 5a3e
00000310: 82f3 ccbe ff33 e5bb 9428 5abf ff26 253e
-0.102977216 -0.57407737 -0.009297774 -0.018638732 -0.02916361 0.13282466 0.1755626 -0.9648498
0.029103741 -0.0001908063 -0.06279792 0.013931214 0.22117575 -0.2388289 0.19981414 -0.20166487
-0.16839261 0.23128287 -0.17864558 0.18484795 -0.23151737 -0.48206598 -0.19761586 0.21483438
0.12889345 0.09030777 -0.0076125152 -0.007517823 0.17425017 -0.03835104 -0.5360085 0.21833402
0.053552736 -0.21423562 0.19891804 0.2413758 -0.035469063 0.24829532 0.07243808 0.13990036
0.10037215 -0.14046714 0.0046692505 -0.70133406 0.021120474 -0.21442178 0.024126148 0.17668805
-0.14844579 0.015611652 0.3865426 -0.091754876 -0.11945361 -0.1588477 0.016576396 0.17279452
-0.045584135 -0.7731495 -0.22235334 -0.013328977 0.23169202 0.20302238 0.23245867 0.19263293
0.25277632 -0.9803704 0.19227652 -0.016601615 -0.17743589 -0.12944026 0.2461858 -0.9934657
0.0006252388 0.21014868 -0.6982957 0.16142565 -0.40442395 0.2042151 0.25992596 0.2467265
-0.20417921 -0.15940434 0.034756362 -0.2497858 0.21363828 -0.56752825 0.17891616 0.23530416
-0.25177345 0.09664635 0.09971466 0.18856183 -0.00020556615 0.14121288 -0.21018423 0.19437103
-0.74469155 -0.0012685776 -0.93613446 0.21592636 -0.09530366 -0.23472154 -0.06910176 -0.009776429
-0.015729435 0.19366765 0.18660799 -0.15742506 -0.01762364 0.02077144 0.056910485 -0.015850116
0.24048147 -0.14787947 0.12681277 -0.17519303 -0.19359572 0.2527151 0.13475394 0.18412876
0.074273 -1.0174898 -0.2230874 0.09378994 0.13701752 0.19560479 -0.049868464 0.0082250675
0.2799203 -0.08109081 -1.1187072 0.19815293 0.15926534 -0.073454246 0.13292553 0.18254577
0.052353445 0.29233092 0.17563637 0.17982483 -0.2856073 0.063766144 -0.005990254 -0.5975551
0.020442367 -0.046267446 0.17063487 0.20064248 -0.16073167 0.061381277 0.07841776 0.06495492
0.0712136 0.08662017 -0.016036319 0.11087016 -1.0691688 -0.6879057 -0.23205942 -0.005184286
0.22759883 0.2559711 0.30259144 0.19413124 0.19629212 0.18513796 0.20530356 -0.0051225335
-0.17924991 0.027958298 0.15501454 -0.84416133 0.016404916 0.25204006 0.253004 0.21456234
0.012911072 0.22182864 -0.32249677 0.22631662 -0.12510332 -0.14059207 -0.015752053 -0.20657134
0.2075922 -0.24163395 0.040467035 0.26099226 -0.16107251 0.15446402 0.14388616 0.15095913
-0.007854288 0.19815308 -0.18862201 0.2132825 -0.40029532 -0.006994724 -0.8521817 0.16128157

bias f4 [2]
00000000: c65e 7c3e 0315 053e
0.24645528 0.12996297

exp_avg f4 [50, 4]
00000000: 24c9 c3ba 37c1 813b cb9a 3ab9 49f5 a1bb
00000010: 586c 2d3c 0d9b 9b3b bd78 8239 8e83 643a
00000020: e44c 39bb a759 fab8 69d1 3aba c0b7 88bb
00000030: 9fe9 09b9 4967 f439 2b15 a8b7 93d8 3cba
00000040: ca5d f2bb 4fdb 5fbc ade4 b937 51dd e33b
00000050: dcb7 21bb 4b4f aaba 6930 8fb9 42d7 90ba
00000060: df7e 6538 773c 1c37 3256 8934 7b14 7637
00000070: 893b b13b 4bc7 f23a 48a3 cdb9 9e5b d8ba
00000080: b5db d139 4e18 43ba 2e67 4cb7 26ec cb39
00000090: 0857 693a e2a8 603a ab8c b039 f1ae 463a
000000a0: 1307 b8ba 97e9 453a 64e3 3139 b493 19ba
000000b0: 5eb4 92bb 3318 ceba 7e96 51b8 c02b 51ba
000000c0: 89b1 cebb f282 a6bb 7b5a 46b9 92d1 fc38
000000d0: 924b 4cba b5d2 e8ba 755f 33b9 85f0 6b39
000000e0: 4d3b 9abb 1dc5 f1ba d2fd af37 9cd8 70b9
000000f0: 7936 ebba a151 2539 f3cc 9e39 d7e6 b839
00000100: 36b2 85bb 8b57 27ba ad07 d6b8 d570 e8ba
00000110: 1b75 bcbb 8048 e7ba 7ba0 03ba 5224 3abb
00000120: 41d2 39ba fb1e 9abb c6d9 97b9 eb07 003b
00000130: 5ce4 a3bb e13f 9fba ed5f b9b8 fb81 bfba
00000140: d269 7fba 0f17 1db9 7615 bcb8 ec22 4fba
00000150: 4a6a 7bbb fcb0 ecb9 15a3 0bb8 86d5 a8ba
00000160: 22c9 acb9 b2c7 1cb9 0ad7 54b8 5a46 3cb9
00000170: a710 c7b9 ea42 91b9 eba9 a138 6c15 e639
00000180: 24be 0236 1816 20b9 45c4 6db7 b43e 0937
00000190: 330d c3bb 8cfe 26ba a48c b4b9 97ab 61bb
000001a0: 6d7e 54bb 92fb ccba f289 8739 ec9b 3b3a
000001b0: 75f7 473b c791 d33a 126b 1739 d70c 6239
000001c0: c4be 45ba 7f71 9dba a2ef 8439 24b6 a43a
000001d0: d992 33bb 2655 b939 599d 76b9 dabe 14bb
000001e0: b10e 62ba 1826 643a 18e9 4cb9 7286 0abb
000001f0: 3e3f 0cbb e594 1eba 3d3a aab9 f1a2 e7ba
00000200: 5e8c 3e3b 55bb 0339 7bc1 a4b8 f130 8b38
00000210: 4a13 873b 4722 2b3b 0eda 8c3a e165 843b
00000220: f1fe 02bb 96d5 47b9 841f 8838 e314 41ba
00000230: 401f 97bb d49c 06bb 8f94 31ba ed20 2dbb
00000240: 3491 2eba 4b1b 21ba 623c 1eb6 2f0b af39
00000250: e20e 84bb b303 0db9 5956 fbb8 344a 11bb
00000260: 696b 8dbb feb1 58ba 9ce4 8bb9 2ecc 0dbb
00000270: c908 7bbb 0a06 cdba ae3f afb9 a50c d0ba
00000280: f11b 80ba 83c3 b039 bc7f ab38 79a9 2bba
00000290: 0ca7 c3ba a045 eabb 488a 1d3b 05af 823c
000002a0: 89c7 63bb 5e9e 8aba c9da 84b8 98f0 f8ba
000002b0: ec34 e0ba 9e8a a4bb 7607 66b9 c851 1c3b
000002c0: f7fa 76ba ca9e ddb9 19dc a738 afba b039
000002d0: 7dee 9b38 dcee fd37 bd08 4436 b28c 5a37
000002e0: d81f 1e39 16a4 813a d5ba 56b8 0fc2 9aba
000002f0: cc89 8338 156d 65b8 ee95 7836 9d52 e638
00000300: 14e4 e039 8430 4e3a 2a56 96b8 c0fb 77ba
00000310: 2589 713b 5574 4eb9 aa3f 98b8 b1ef 003a
-0.0014937264 0.0039598006 -0.00017796007 -0.0049425703 0.010584913 0.004748708 0.0002488549 0.0008717113
-0.002827459 -0.00011937628 -0.00071265415 -0.0041722953 -0.00013152369 0.0004661626 -2.0037018e-05 -0.0007203903
-0.0073964344 -0.013663127 2.2160204e-05 0.006953873 -0.002467624 -0.0012993602 -0.00027311154 -0.001105048
5.4716013e-05 9.312403e-06 2.5580954e-07 1.4667511e-05 0.0054087085 0.0018522529 -0.000392223 -0.0016506796
0.0004002728 -0.00074422813 -1.2183371e-05 0.00038895122 0.00089012133 0.00085700874 0.00033674142 0.0007579169
-0.0014040194 0.0007549761 0.00016964745 -0.00058584963 -0.004477068 -0.0015723765 -4.996964e-05 -0.00079792365
-0.006307785 -0.005081528 -0.00018916458 0.00012055332 -0.0007793243 -0.0017762991 -0.00017106331 0.00022500947
-0.0047067762 -0.0018445585 2.097982e-05 -0.00022968877 -0.0017945311 0.00015766035 0.00030288807 0.00035267204
-0.0040800823 -0.00063835894 -0.00010205745 -0.0017733822 -0.0057512647 -0.0017645508 -0.0005021167 -0.0028402996
-0.000708852 -0.0047034 -0.00028963218 0.001953597 -0.005001588 -0.0012149775 -8.839355e-05 -0.0014610881
-0.00097432465 -0.00014981277 -8.968536e-05 -0.0007901627 -0.0038362914 -0.0004514529 -3.3292064e-05 -0.0012881018
-0.00032956252 -0.00014951712 -5.074501e-05 -0.00017955285 -0.00037968645 -0.0002770641 7.708728e-05 0.0004388498
1.9482186e-06 -0.0001526702 -1.4171998e-05 8.1804355e-06 -0.005952501 -0.0006370328 -0.0003443706 -0.003443455
-0.0032423988 -0.0015638939 0.00025851984 0.0007156718 0.0030512486 0.0016141467 0.00014440369 0.00021557823
-0.000754338 -0.0012011974 0.00025355542 0.0012566489 -0.002740076 0.0003534939 -0.00023519005 -0.0022696764
-0.0008623405 0.0008703186 -0.0001954179 -0.0021137265 -0.00214 -0.00060494087 -0.00032468318 -0.0017672462
0.0029075365 0.0001256292 -7.856168e-05 6.6371525e-05 0.0041221725 0.002611296 0.0010746138 0.004040465
-0.0019988383 -0.00019057686 6.4908556e-05 -0.0007365478 -0.0046118796 -0.0020540254 -0.0006774151 -0.002641733
-0.000665921 -0.00061457296 -2.3578982e-06 0.00033386934 -0.0040300945 -0.00013448186 -0.00011984696 -0.0022169473
-0.004315783 -0.0008266269 -0.00026682473 -0.0021636593 -0.0038304797 -0.0015642059 -0.00033426046 -0.0015872909
-0.0009773952 0.00033715004 8.177708e-05 -0.0006548386 -0.0014927103 -0.007149413 0.002403872 0.015952596
-0.0034756383 -0.0010575762 -6.3350024e-05 -0.0018992601 -0.0017105616 -0.0050214073 -0.00021937289 0.0023852456
-0.0009421552 -0.00042270712 8.004177e-05 0.00033708426 7.435398e-05 3.0271178e-05 2.9211362e-06 1.3026571e-05
0.00015079917 0.000989082 -5.1195577e-05 -0.0011807102 6.2722334e-05 -5.4699445e-05 3.704215e-06 0.000109826426
0.0004289454 0.0007865506 -7.168607e-05 -0.0009459816 0.0036855426 -0.00019689028 -7.259783e-05 0.00049185293

exp_avg_sq f4 [50, 4]
00000000: 7d95 1b3c 63e2 c83b aa26 8f39 4137 543b
00000010: a3c8 313e 7e16 903d b746 4c39 88cc d73a
00000020: 9b4c c53b c376 6f3b 53ea a138 e13d a03a
00000030: 62c1 bf37 bee4 c037 8d16 2f35 21c8 0138
00000040: 268a 003e 6ca6 6f3d 11d1 373a 544f 663c
00000050: 4bab 853b 5813 dc3a 9ab2 e337 ff69 363a
00000060: fc50 a335 75db 3a35 2bd3 2732 c19e 5a34
00000070: ed1b c33c b96f 453c 6bbc 4b39 1e15 993b
00000080: 4cf1 933b 3520 773b dc62 2338 0846 823a
00000090: 2b8c 413b 8bf8 163b 1922 4038 a782 dd39
000000a0: a490 b03a 67c3 523a 8aed b837 528d e939
000000b0: aed1 fa3b d8b2 8e3b 1912 ae38 99a4 9d3a
000000c0: 2ab8 d83d 0163 333d aeb9 f638 18ba 813a
000000d0: 74fe 5d3b 5558 3d3b 7eb8 0338 28bf 413a
000000e0: e606 523c f873 043c 458e 5639 ed47 293b
000000f0: 5502 4b3b 2e49 043b 8762 8538 ff1c 9b3a
00000100: e656 f83b 823d 893b 3c7d 8938 aae0 893a
00000110: eec7 633c ca8b f23b 10ae ae38 9565 c03a
00000120: 425d bb3b 2826 c13b 7ed4 c938 e496 673b
00000130: 43c2 293c 0e6d bf3b 2bfa 9a38 0a43 a63a
00000140: 8250 303b 4b04 9e3a 31d8 0838 8845 093a
00000150: 624f e13b 8fe7 813b da06 7d38 762f 9b3a
00000160: 1482 3839 66f1 1c39 e356 ba36 6ce6 ce38
00000170: 0ad2 6639 390c 8339 4a7f ae36 e4f6 0e39
00000180: 0a6a 8a38 abc2 2c38 a6b5 aa36 3fd2 6b38
00000190: dd0b 133c 6785 a53b 9d01 9438 e7ed ad3a
000001a0: 3cc3 6f3b ded5 ee3a 51a0 3038 be80 303a
000001b0: dd2e f33b 8634 3e3b e2b0 7a37 6b42 9239
000001c0: f055 083c 05cb 2f3b db0e 4a38 fec7 2d3a
000001d0: 328b 4f3b 52ee bf3a 8a88 a937 378c 033a
000001e0: 2436 283a d760 fc39 102d 8837 f81f 8239
000001f0: 7fe8 b83a dbac 533a d453 de37 4efa d639
00000200: 15b6 793b 0b88 f33a 057c 8b37 d2e0 e739
00000210: dfd1 893c cbe0 4d3c 3c43 9b39 2826 583b
00000220: abff 0a3b 3924 923a 488d 0338 ac50 d139
00000230: e5bd 273c 97fa b23b 28d3 fd38 760c fb3a
00000240: 9463 933a 27e9 603a 6650 8237 a777 a239
00000250: 85d1 c13b 6621 5f3b a841 3538 065f 553a
00000260: a90f b13b 0d9a 413b 378b 3d38 61a8 5f3a
00000270: 688e a63b 8329 303b e6cf 1c38 dc5d 2d3a
00000280: 1a60 1c3a bc78 f239 664e 7f37 1627 9639
00000290: 7753 cb3c 1ddc 943c e7f3 2c3b e574 133d
000002a0: 92ad e43b 536d 4d3b 2841 bd38 146d d43a
000002b0: 439f e83c 21f4 ab3c 5d29 2839 615a 243b
000002c0: 6caa 2f3a bbea 0b3a 31dd 7037 ca93 9339
000002d0: 7f59 2e36 724d ba35 579c 8f32 4a5e b334
000002e0: b063 5638 b6a3 2639 6c83 8236 e077 9b39
000002f0: dfce 2135 e738 0737 2c2d bd33 c35c 7a37
00000300: 905b a13a 0b94 843a 6c72 3837 c335 d139
00000310: 3d10 193c 151f a33b 0226 9c38 3e53 d93a
0.00949609 0.006130503 0.00027303892 0.0032381567 0.17361693 0.0703554 0.000194813 0.0016464153
0.006021095 0.0036539293 7.7207245e-05 0.0012225473 2.2859025e-05 2.29947e-05 6.5225396e-07 3.094238e-05
0.125527 0.05850832 0.00070120493 0.014056999 0.0040792576 0.0016790433 2.7143677e-05 0.00069585437
1.2168016e-06 6.960975e-07 9.768693e-09 2.0360586e-07 0.023817027 0.012050563 0.0001942978 0.004671707
0.004514849 0.0037708406 3.89543e-05 0.0009939084 0.002953301 0.0023036327 4.5808123e-05 0.00042249748
0.0013470841 0.00080399815 2.2045122e-05 0.00044546515 0.0076543903 0.004354816 8.3003375e-05 0.0012027203
0.105820015 0.04379559 0.000117647796 0.0009897379 0.003387359 0.0028891761 3.1404656e-05 0.000739085
0.0128190275 0.00808429 0.0002046163 0.0025830225 0.0030976732 0.002018522 6.360286e-05 0.0011834203
0.0075787185 0.0041882405 6.555996e-05 0.0010519226 0.013902647 0.007401918 8.329388e-05 0.0014678711
0.0057179043 0.005894441 9.6240066e-05 0.003533774 0.010361257 0.0058418578 7.38989e-05 0.0012684774
0.0026903455 0.0012055723 3.262627e-05 0.0005236496 0.0068759182 0.0039643715 6.032628e-05 0.0011839706
0.00017596065 0.00014967247 5.553347e-06 9.865765e-05 0.00022012755 0.00024995374 5.2004225e-06 0.00013634149
6.600104e-05 4.1189294e-05 5.0875415e-06 5.6224173e-05 0.008974996 0.005051303 7.0574904e-05 0.0013269753
0.0036584875 0.0018221696 4.2110976e-05 0.0006733051 0.007421358 0.0029023006 1.4942345e-05 0.00027896775
0.00832127 0.002682389 4.817439e-05 0.00066292274 0.003166866 0.0014643169 2.020995e-05 0.0005018147
0.0006416759 0.00048137337 1.6233447e-05 0.0002481935 0.0014107375 0.00080747687 2.6503498e-05 0.00041003752
0.0038102914 0.0018579973 1.6627842e-05 0.00044227258 0.016823707 0.012565802 0.00029613997 0.0032981727
0.002120952 0.0011149711 3.1364412e-05 0.00039923692 0.0102381455 0.0054620015 0.00012103311 0.0019153494
0.0011244887 0.0008579664 1.5534646e-05 0.00030988196 0.0059148693 0.0034047007 4.321491e-05 0.0008139465
0.005403478 0.0029541284 4.5190765e-05 0.00085318653 0.005082894 0.0026880212 3.738692e-05 0.00066134124
0.0005965248 0.0004624779 1.5217438e-05 0.0002863935 0.024820073 0.018171364 0.0026390494 0.03600015
0.006978699 0.003134568 9.0243586e-05 0.0016206824 0.028396254 0.020990433 0.00016037138 0.0025078284
0.0006701115 0.0005337407 1.4356615e-05 0.00028148136 2.5980114e-06 1.388062e-06 1.6718486e-08 3.3409952e-07
5.1114417e-05 0.00015891981 3.8896014e-06 0.00029653218 6.027821e-07 8.059876e-06 8.809215e-08 1.4922759e-05
0.0012310613 0.0010114921 1.0993896e-05 0.00039903642 0.00934225 0.0049780705 7.445739e-05 0.0016580594

exp_avg f4 [50]
00000000: e4a5 0b39 7fc7 b0bb 102d 81bb d815 163a
00000010: 5a43 a1ba 95c5 babb 541e 9a38 3324 ee3b
00000020: cdf9 ec39 09ca 9c3a 5b90 8bba 8784 b8bb
00000030: ed6c 683b 4dd5 a9b9 2d38 ecbb 9849 4cbb
00000040: 1e81 dcbb 1e91 fdbb 33fb eab9 3989 d5bb
00000050: 4aaa 7dbb b0b0 b4bb 5ee4 3db9 7570 19bb
00000060: ea93 5aba 5ddd d4bb 7b84 b3bb 054e 01bb
00000070: b04c ec3a dadd 7cbb 93e6 4abb 4373 46bb
00000080: ba4c 04bb 99d4 cc3b 986c 26bb 40de 03bc
00000090: 870b 9bbb 5f0a 9ebb 1398 b6bb 0835 a4bb
000000a0: b91d 89bb fbc9 8e3c a81a 02bc f191 f5ba
000000b0: 2cb4 71bb 9610 0339 e550 713a 23d1 c338
000000c0: 4b74 213a 8a69 0abb
0.00013317872 -0.0053948755 -0.0039421394 0.0005725301 -0.0012303398 -0.005699823 7.348941e-05 0.007267499
0.00045199544 0.0011962067 -0.001064788 -0.005631033 0.0035465315 -0.00032393113 -0.007208845 -0.0031171795
-0.006729259 -0.0077382466 -0.00044819116 -0.0065166024 -0.0038706237 -0.005514227 -0.00018109518 -0.0023412977
-0.0008338081 -0.006496115 -0.0054784394 -0.001973034 0.0018028226 -0.0038584382 -0.0030960187 -0.0030281104
-0.0020187334 0.0062509296 -0.0025394317 -0.008048594 -0.004731599 -0.0048230137 -0.005572328 -0.0050112046
-0.0041844514 0.017430296 -0.007940926 -0.001873551 -0.0036881072 0.00012499312 0.00092054746 9.337279e-05
0.00061589916 -0.0021120035

exp_avg_sq f4 [50]
00000000: 15b8 fe3b 77ec 083d f15f 8f3b 7503 cc37
00000010: e40d 163d 35de 473b a3b5 4e35 5df3 6c3c
00000020: 1f2c c03a f0a8 b83a 6be7 7b3a 3198 a53b
00000030: de1f a03c ae1b 8a3a 46cd 133c 182c 163b
00000040: f4c6 a13b 9172 093c 15b2 573b 5b3f cd3b
00000050: 3555 d13a 9151 8a3b 2a2c 3b39 2afe a839
00000060: 0183 1239 2840 dd3b 6126 2d3b c252 073b
00000070: a83c 3c3b 9772 1b3b 2ea5 493a 03bc c33a
00000080: 6216 a73a 506b 133c 85a9 c83a b9f2 fa3b
00000090: a1b2 9d3a 860f 783b d997 843b c3cd 5e3b
000000a0: 8355 4b3a c7d5 923d 7313 ba3b d1da d13b
000000b0: 909f 313a 2481 d835 3266 e338 6b80 1e37
000000c0: d9ec db39 0700 613b
0.007773409 0.033428635 0.004375451 2.4320305e-05 0.03663434 0.0030497436 7.7005296e-07 0.014462319
0.0014661587 0.0014088433 0.0009609374 0.005053543 0.019546445 0.0010536814 0.009021109 0.0022914466
0.004937047 0.008389131 0.0032912542 0.006263656 0.0015970828 0.0042211493 0.00017850162 0.00032232824
0.00013972448 0.006752033 0.002642058 0.0020648693 0.0028722677 0.0023719424 0.0007692155 0.0014933351
0.001274776 0.008997753 0.001530931 0.0076583293 0.0012031385 0.003785105 0.004046422 0.0033997155
0.00077565777 0.07169681 0.005678588 0.006404259 0.0006775791 1.6130839e-06 0.00010843239 9.4474335e-06
0.000419474 0.0034332292

exp_avg f4 [100, 50]
00000000: de82 5436 6153 20b3 f49f 7736 49e4 42b3
00000010: 0d00 64b3 1f48 4b35 c9de 30b3 e3e8 89b5
00000020: 367c 4a33 45bb 3735 7ad1 02b5 5a2c 1a36
00000030: d5f1 64b3 c21e 48b3 de82 9b36 c4e0 8a35
00000040: 238e 0b36 119e 9036 5aa0 1934 426e 0f36
00000050: 6bf3 d835 cc8e 4836 570e 6935 cae8 3636
00000060: 9721 36b4 aa4f 2136 9808 5136 7f92 53b5
00000070: ca7b 5b34 57c0 5cb4 f715 fb34 74e3 9e35
00000080: c93d 38b4 67d3 0b35 3b29 1336 50ed 3436
00000090: 3c0e 6f36 e2ca 0d36 8271 5436 b7de 2136
000000a0: 3fa5 2036 e444 3434 8b3b 5fb2 a64d 2f34
000000b0: 0656 f435 173d 0cb3 1d1c 64b4 74b4 f933
000000c0: ce41 b2b4 1f81 3cb4 f141 2b39 5740 08b8
000000d0: 525e d236 6913 d338 8be4 41b5 7e48 d9b8
000000e0: 810b aeb6 19b5 a3b8 7ae7 cb37 4455 8f38
000000f0: dca1 e338 2c97 de38 b32f 66b7 6bba 5bb5
00000100: 8fbf 8439 eb17 8d39 d62d 9d3a ddd7 d239
00000110: b10c a136 6fab 723a 82dd 1fb7 596f 393a
00000120: f13f 5637 a32d c638 1e1a 2a39 ddcc 043a
00000130: e812 5636 8266 1fb9 e94a b737 5087 aa38
00000140: 3d82 b437 8752 4539 270d b039 b01c 0838
00000150: 2107 7db8 99c2 d639 eba7 423a 73f9 493a
00000160: e259 dc39 5701 9639 5297 413a 5bd4 0138
00000170: 8731 17b9 fb47 0635 38ad 293a 2cbf 13b7
00000180: 4153 3138 3188 08b7 4934 be38 587d 6137
00000190: 988c 8735 92d4 4233 c32f c835 23bf 41b4
000001a0: e948 bab3 210b 5eb3 f386 08b2 47f9 a3b5
000001b0: ba16 2cb4 77fa 0735 14a7 63b5 0b59 1935
000001c0: 2764 33b2 abc6 8cb3 647d ec35 4b86 f5b3
000001d0: b67a 12b6 6768 6b35 f430 02b4 5df9 d0b5
000001e0: 50dc 5f35 f4d1 03b4 23c0 0e35 95c8 c135
000001f0: d02b 39b5 4d04 c7b4 485c 9235 235d a5b4
00000200: f7f4 1634 1ba0 8ab5 8810 2534 8ee8 02b4
00000210: 583f 6cb5 39fc b934 02db 3135 2a73 4c34
00000220: bab0 4334 2ff1 adb5 1ce6 03b4 a7b9 9634
00000230: a633 82b4 8def 2334 add8 8bb4 65db 7b33
00000240: c2cb cab4 1223 2332 05cb 3bb4 567d 2a34
00000250: 9a54 afb4 0da4 98b4 52b8 fb34 a2e1 5cb2
00000260: f515 0935 93fd 3c32 c36c bbb1 fa00 1134
00000270: cccb e4b1 4999 a1b3 5f8d ab32 bad8 8f33
00000280: 8c43 16b1 c1a0 be34 4f78 17b2 4cec 89b1
00000290: 20a4 3035 12f8 5734 9dbd 2135 1479 3835
000002a0: e6b7 0c33 a2fc 1235 a408 5c34 b055 1535
000002b0: 5ebd d933 0a57 b834 09f4 2e33 fdd4 fe34
000002c0: 0c13 f034 7e93 fdb3 2899 af32 6790 8433
000002d0: 8b04 9333 6ec7 7234 a3ab 6033 2e3c 6e33
000002e0: 6b4b ad34 7fcf fa34 6cc0 2835 3c7e 0a35
000002f0: 035a 1c35 076c da34 d675 f734 057e 5a32
00000300: 9526 9f32 b259 b332 2193 c634 1380 ecb1
00000310: bb5d beb2 de72 6a31 f47b f0b2 8e86 2bb2
00000320: 14cc 4935 d9c1 bdb2 7bfc 5b35 f987 a732
00000330: dc92 1ab1 97fb 6734 061b 39b2 2145 efb3
00000340: 3c65 3233 a9d7 eb33 c9e8 02b1 c266 1835
00000350: e025 7cb2 196c 30b1 cb4b 8d35 f865 af34
00000360: 12d1 8635 e53f 9535 f6ef 8233 e2ea 7235
00000370: ff5d ae34 cdc0 7335 f525 2d34 4ef0 1335
00000380: 2cc5 9c33 6099 5035 206d 3f35 9fd5 4eb4
00000390: d681 0e33 3e42 e133 fcf2 f433 2337 c734
000003a0: 973d d933 d012 c333 b1a9 0935 e9cf 4c35
000003b0: ba06 8a35 5ca8 6335 7dca 7d35 a6ba 3135
000003c0: 01be 4b35 a3d3 b932 22cf eb32 16b2 1d33
000003d0: cce3 2335 2cd7 41b2 1708 06b3 e4e5 b531
000003e0: aa4d 24b3 be85 c4b1 6066 02ba 89aa 3cb5
000003f0: dc47 20ba 6c67 1538 6ac7 0738 6f18 aeb8
3.1666636e-06 -3.7328736e-08 3.6898973e-06 -4.537677e-08 -5.3085433e-08 7.5728343e-07 -4.1180815e-08 -1.0275074e-06
4.714476e-08 6.8445325e-07 -4.87336e-07 2.2973604e-06 -5.330533e-08 -4.6594103e-08 4.634595e-06 1.0347217e-06
2.0795349e-06 4.309936e-06 1.4307571e-07 2.137284e-06 1.6164098e-06 2.988544e-06 8.682013e-07 2.7255614e-06
-1.6962291e-07 2.403724e-06 3.114843e-06 -7.8816805e-07 2.0440999e-07 -2.055907e-07 4.6768375e-07 1.1838115e-06
-1.7158813e-07 5.2089166e-07 2.1928706e-06 2.6960224e-06 3.562206e-06 2.112873e-06 3.1656532e-06 2.4120507e-06
2.3938044e-06 1.6788869e-07 -1.2993847e-08 1.6326393e-07 1.8204453e-06 -3.265185e-08 -2.1244382e-07 1.162779e-07
-3.3202963e-07 -1.7555838e-07 0.00016332396 -3.2484848e-05 6.269468e-06 0.000100648795 -7.2230677e-07 -0.00010360869
-5.1869433e-06 -7.806178e-05 2.4307275e-05 6.834653e-05 0.00010854352 0.00010613943 -1.3720174e-05 -8.185513e-07
0.00025319724 0.00026911436 0.001199181 0.00040215152 4.7996514e-06 0.0009257113 -9.528712e-06 0.0007073782
1.27702815e-05 9.449876e-05 0.00016222193 0.00050659274 3.189949e-06 -0.00015201609 2.1850183e-05 8.1314356e-05
2.1518319e-05 0.00018818128 0.00033579135 3.2451644e-05 -6.032654e-05 0.00040962247 0.00074255344 0.00077047123
0.00042028638 0.00028611228 0.0007384914 3.0953768e-05 -0.00014418933 5.0023635e-07 0.000647265 -8.806393e-06
4.2277625e-05 -8.137941e-06 9.069645e-05 1.3440229e-05 1.0099202e-06 4.5362476e-08 1.4915062e-06 -1.8044061e-07
-8.674562e-08 -5.1698525e-08 -7.946926e-09 -1.2216996e-06 -1.6027016e-07 5.0655893e-07 -8.480722e-07 5.7126516e-07
-1.0441943e-08 -6.5553955e-08 1.7619864e-06 -1.1433129e-07 -2.1827123e-06 8.769625e-07 -1.2125003e-07 -1.5569782e-06
8.339457e-07 -1.2276706e-07 5.317872e-07 1.4437998e-06 -6.8981626e-07 -3.7069768e-07 1.0904705e-06 -3.080141e-07
1.4058956e-07 -1.0328398e-06 1.5372837e-07 -1.2191796e-07 -8.800903e-07 3.464245e-07 6.6256337e-07 1.9040877e-07
1.8225083e-07 -1.2959698e-06 -1.2284039e-07 2.8074757e-07 -2.4251966e-07 1.5267706e-07 -2.604842e-07 5.864003e-08
-3.7773685e-07 9.495823e-09 -1.748959e-07 1.5878081e-07 -3.2657846e-07 -2.843157e-07 4.6886504e-07 -1.2856988e-08
5.106843e-07 1.1000696e-08 -5.454781e-09 1.3504533e-07 -6.6588424e-09 -7.525029e-08 1.9971308e-08 6.698379e-08
-2.1866269e-09 3.5507222e-07 -8.816712e-09 -4.0140886e-09 6.580394e-07 2.0113683e-07 6.02531e-07 6.8721533e-07
3.2763545e-08 5.475687e-07 2.049224e-07 5.563152e-07 1.01392956e-07 3.4336e-07 4.073448e-08 4.7466156e-07
4.4717342e-07 -1.1808059e-07 2.0442329e-08 6.1729956e-08 6.846047e-08 2.2610558e-07 5.2310167e-08 5.5468426e-08
3.2278635e-07 4.6717102e-07 6.286489e-07 5.15927e-07 5.8245513e-07 4.0684264e-07 4.6093072e-07 1.2717924e-08
1.8527581e-08 2.0879131e-08 3.6987424e-07 -6.8830643e-09 -2.2161535e-08 3.4116776e-09 -2.7996045e-08 -9.984104e-09
7.517531e-07 -2.2090648e-08 8.1951265e-07 1.9503192e-08 -2.249343e-09 2.160508e-07 -1.0774562e-08 -1.1141879e-07
4.1535927e-08 1.09822686e-07 -1.9049813e-09 5.6773945e-07 -1.4676942e-08 -2.5672817e-09 1.0527377e-06 3.2670482e-07
1.0044625e-06 1.1119961e-06 6.0972454e-08 9.0493825e-07 3.2478417e-07 9.0805116e-07 1.6125689e-07 5.5111457e-07
7.3001814e-08 7.770923e-07 7.131184e-07 -1.926296e-07 3.3180036e-08 1.0489428e-07 1.1406334e-07 3.7106756e-07
1.0116053e-07 9.083817e-08 5.128341e-07 7.629847e-07 1.0283759e-06 8.4809085e-07 9.4544504e-07 6.620925e-07
7.5899885e-07 2.1633076e-08 2.7451794e-08 3.671638e-08 6.105372e-07 -1.1283003e-08 -3.1206664e-08 5.293929e-09
-3.825486e-08 -5.7195555e-09 -0.00049743615 -7.028362e-07 -0.00061142235 3.5620687e-05 3.2372227e-05 -8.301518e-05

exp_avg_sq f4 [100, 50]
00000000: 23ea c430 8811 862e 081f 2c30 09de 9c2d
00000010: 0c9a 642e ee2a e530 2869 392a 21a6 5631
00000020: 2173 c72f 0f8b d52e 1955 5c30 a3fe d930
00000030: 5af3 672d b75a a82d 3464 0731 4dfe ab2f
00000040: bc0d 3531 7635 e030 a417 ea2d 6c8b 1f31
00000050: 991e 6c2f 0727 9e30 7e6f 862e cd99 6030
00000060: 9539 0f2f ff29 a430 cfc7 1c31 2a56 9030
00000070: 6528 f12d aedb 1d31 2134 2130 2d71 732f
00000080: 70cb 8b2f 85dd a22e 52a2 4a31 c923 1130
00000090: 6642 d930 5e79 3b31 0032 5631 60e3 1130
000000a0: 9274 e230 d135 a52d 43dd ba30 2df3 8e2e
000000b0: bed4 3f30 d8b6 a42a 6d90 a52d 63e6 bc2c
000000c0: b15a e72e e82f e82e 900a 5338 b2d2 7736
000000d0: 439d cf35 65e2 7c35 0e77 0b36 93aa 8238
000000e0: 744f 8731 802b 2139 bbc1 4433 168f 5536
000000f0: 9243 5d38 61a9 9038 4a7a 6535 eee9 1332
00000100: f33b 4838 52e1 8c37 cd1d 3239 ec57 df37
00000110: a5b4 0732 a0fa 0c39 f35e 0436 9483 2f38
00000120: d15e b735 3b75 dc36 aa35 3c37 0f36 4d38
00000130: 34b0 a038 6193 8638 7688 1736 2ff8 f338
00000140: b61c 1d36 26b8 c036 9626 af37 a1b1 fb35
00000150: 58be fa38 a1f4 db36 3692 e837 48b1 2539
00000160: 4be7 0339 5fc0 1337 635b e037 270b a335
00000170: 7e8a 7e38 a8b7 d232 151b 8c37 0f35 6732
00000180: b600 3133 3ad3 da34 1c6a c934 e536 b236
00000190: ee68 fc2f 9953 f62d 9c8a 272f fa89 292d
000001a0: 9ef1 5d2d 0159 1630 7619 4929 f4e0 9530
000001b0: 043a dd2e e369 522e f81b a42f 223f 0830
000001c0: 8eba 052d 90db f92c 512a 3030 3251 b62e
000001d0: 548a e72f 6698 d72f 3be1 272d 01f7 ff2f
000001e0: 20cb 8f2e 2304 892f b0f0 d62d 0f35 9b2f
000001f0: 3747 042e d840 8c2f a874 5530 f422 0230
00000200: b59e 6e2d bdbf 5330 7cbe 392f 6d9e 3d2e
00000210: 3c8f 702e a411 292e 4962 8930 dfec d62e
00000220: a401 d82f e7e8 2e30 0e80 8130 6db4 fb2e
00000230: 768c e72f b0e4 6e2d 902a 0330 cea7 cc2d
00000240: ec6c 2f2f 7340 8c29 ee15 e02c 8ecc 012c
00000250: c99d f22d 3ea2 9b2d 72b1 8731 cc9f 8d2c
00000260: d971 3d2f e775 ad2c 0ec1 9c2c f999 ab2f
00000270: a1d3 9d2a cb13 f82f 4007 072e 0c8d 2f30
00000280: 23ee 7d2f 2de3 3d31 d114 a82b bfe2 f12b
00000290: 5007 a431 541c 4630 7333 9d30 c5a7 7f30
000002a0: 5907 012c 0194 8c30 2f8d b02e 7d21 9f30
000002b0: f1b1 442d 1309 9430 e435 142f ce7f ce30
000002c0: ce1c 3531 d765 db2e 51e0 882f 0e7d cc2f
000002d0: 6bd6 f52f d5d1 e22e 78d8 aa2d 7f05 1a2f
000002e0: cd77 3431 98a0 0e2f aad0 4730 8899 0131
000002f0: c382 1231 efc6 aa2f 505d 2730 62f4 0030
00000300: ed73 902f 3e1e a92c c6f2 cd2e 216f 322a
00000310: 4acd bf2b d118 e92a 30a0 f92c 99a4 002d
00000320: 16a8 532f 61ef 442c a655 a32e c543 632d
00000330: 316b 2e2d f743 e62e bf0c 9a28 4953 522f
00000340: b2ea 9e2e 67fe 602e d00f 632e f64c 4e2f
00000350: 763f 2f2b d362 142d e2a6 a42f a178 082e
00000360: 67f1 ca2f 3136 222f 9e8e 7e2d 7e38 852f
00000370: ecda 812e b164 092f b7c0 da2e 38ee eb2e
00000380: 76e2 a82d f5a8 ef2e cbee 9e2f 2378 042f
00000390: 6734 9a2d d6fa 1d2f dbb9 812e 5108 b52d
000003a0: 914d 552e 8eda 962e 7ccc b02f 98bb 682e
000003b0: dbef 5e2f 0a59 7d2f 3334 872f 38e0 522e
000003c0: 1719 782f b282 e52d 2b28 cf2e 0f0a c12d
000003d0: cf20 0b2f 06ce ea28 028d 8c2d 7987 3c2e
000003e0: 4508 322e 564c 952d 8867 3238 84e2 fe35
000003f0: 0e00 9137 0730 a634 487c 5d35 f0d8 3b38
1.4327423e-09 6.096729e-11 6.2617334e-10 1.783375e-11 5.197802e-11 1.6674144e-09 1.6467784e-13 3.1235532e-09
3.6279693e-10 9.71082e-11 8.0156465e-10 1.58612e-09 1.3184865e-11 1.9139674e-11 1.9702044e-09 3.128541e-10
2.6346774e-09 1.631334e-09 2.6613219e-11 2.3216797e-09 2.1474945e-10 1.1507105e-09 6.1134195e-11 8.170929e-10
1.3026231e-10 1.1944506e-09 2.2814566e-09 1.0501868e-09 2.7416467e-11 2.297138e-09 5.864554e-10 2.214093e-10
2.5428504e-10 7.406257e-11 2.9487137e-09 5.2801546e-10 1.58077e-09 2.728107e-09 3.116952e-09 5.307381e-10
1.6476795e-09 1.8782228e-11 1.3596168e-09 6.500609e-11 6.978772e-10 2.9259126e-13 1.8822466e-11 5.3688594e-12
1.0520774e-10 1.05586484e-10 5.0316157e-05 3.692851e-06 1.5468471e-06 9.4206763e-07 2.0781913e-06 6.230655e-05
3.93805e-09 0.00015370362 4.5811003e-08 3.182276e-06 5.2753436e-05 6.898004e-05 8.54871e-07 8.609716e-09
4.7739548e-05 1.6794223e-05 0.00016986504 2.6624613e-05 7.899108e-09 0.00013444806 1.97248e-06 4.1845793e-05
1.3662158e-06 6.5701583e-06 1.1218168e-05 4.8926155e-05 7.662215e-05 6.4170694e-05 2.2580184e-06 0.00011633371
2.3411535e-06 5.7434836e-06 2.0879594e-05 1.8752654e-06 0.00011956383 6.555187e-06 2.772464e-05 0.00015801669
0.00012579297 8.806673e-06 2.6745436e-05 1.2147692e-06 6.06873e-05 2.4530735e-08 1.6701912e-05 1.3458034e-08
4.121167e-08 4.0759352e-07 3.7516372e-07 5.311204e-06 4.591309e-10 2.8004087e-11 1.5237805e-10 9.637175e-12
1.2616045e-11 5.4696164e-10 4.465305e-14 1.0905112e-09 1.0060222e-10 4.7842518e-11 2.98513e-10 4.956623e-10
7.601598e-12 7.101382e-12 6.408856e-10 8.290825e-11 4.2116943e-10 3.9216558e-10 9.542862e-12 4.6559737e-10
6.5389694e-11 2.4923094e-10 2.443587e-11 2.8232036e-10 3.0076577e-11 2.5511926e-10 7.7654727e-10 4.7343396e-10
1.3563974e-11 7.703383e-10 1.6893326e-10 4.3114335e-11 5.46969e-11 3.844182e-11 9.995996e-10 9.77367e-11
3.9291337e-10 6.3631805e-10 9.422381e-10 1.14462086e-10 4.211846e-10 1.35795125e-11 4.771801e-10 2.3266635e-11
1.5954854e-10 6.228429e-14 6.3688976e-12 1.8445553e-12 2.7582285e-11 1.769351e-11 3.9491903e-09 4.025202e-12
1.7229897e-10 4.9300455e-12 4.45522e-12 3.1214123e-10 2.803565e-13 4.5125e-10 3.0701885e-11 6.386507e-10
2.3094819e-10 2.7632254e-09 1.1942896e-12 1.7187015e-12 4.7738595e-09 7.2072237e-10 1.1437876e-09 9.3006874e-10
1.8336081e-12 1.0228406e-09 8.0286326e-11 1.157829e-09 1.1180821e-11 1.0770996e-09 1.3479667e-10 1.5024797e-09
2.635534e-09 9.9770574e-11 2.4897642e-10 3.719624e-10 4.4717594e-10 1.0314564e-10 1.9422894e-11 1.4008171e-10
2.6261546e-09 1.2971879e-10 7.269231e-10 1.8859243e-09 2.1320126e-09 3.106417e-10 6.088685e-10 4.691342e-10
2.6275818e-10 4.8066265e-12 9.365446e-11 1.5848131e-13 1.3628345e-12 4.1406334e-13 7.09479e-12 7.312506e-12
1.9250054e-10 2.7986157e-12 7.427596e-11 1.2918504e-11 9.914556e-12 1.0471262e-10 1.7102962e-14 1.9128978e-10
7.2266984e-11 5.1157658e-11 5.162787e-11 1.8762933e-10 6.226056e-13 8.434769e-12 2.9950004e-10 3.102996e-11
3.6915113e-10 1.4753067e-10 1.4469896e-11 2.42327e-10 5.905129e-11 1.249585e-10 9.947725e-11 1.0728879e-10
1.9199958e-11 1.08984745e-10 2.8909705e-10 1.2048011e-10 1.7531044e-11 1.4368182e-10 5.8992554e-11 2.058101e-11
4.8499486e-11 6.8600334e-11 3.2159508e-10 5.291731e-11 2.0275996e-10 2.3041849e-10 2.4593447e-10 4.7947618e-11
2.2564382e-10 2.6092326e-11 9.4204054e-11 2.1946027e-11 1.2653632e-10 2.6068567e-14 1.5978777e-11 4.2866575e-11
4.047986e-11 1.6973239e-11 4.2534928e-05 1.89904e-06 1.7285372e-05 3.0954854e-07 8.250977e-07 4.4786313e-05

exp_avg f4 [100]
00000000: 795d ec36 5648 873a 1368 1035 acac a335
00000010: c9d8 0436 7a17 63ba a392 9eba 2d9d 493a
00000020: 63c2 0db6 d413 55b3 9338 ec38 7972 2db7
00000030: 989f c3ba c0b6 8a37 86c6 b1ba 7fb8 6937
00000040: 7063 4237 810f caba 5f3b 5137 8206 a7ba
00000050: 4370 8737 ec38 293a b87a 6437 8e6c bcba
00000060: 020e 68ba 4e82 20ba d36b fa34 8b86 1236
00000070: 2b2b 99ba 4e4c 2b36 4dd4 3b3a 927f c5ba
00000080: db3c 92b9 1159 7937 523b b4ba aef3 d5ba
00000090: 66c7 2636 0855 dbba a65b f3b9 0270 7bba
000000a0: 9109 8fba 34d3 2337 79be c6b4 d7b8 6938
000000b0: b6ba 1837 a6e9 7937 f7ca 05b9 9060 9fba
000000c0: ff22 2b37 337c 1db9 01a7 43b8 1f1f f939
000000d0: 6c69 0b37 e4bc 3937 d934 a6b5 2786 99ba
000000e0: 8578 c1ba 423c 6a3a 97af 8037 67be 6a35
000000f0: 47b1 d1ba e6ed afba bb66 ccba 38a3 a8ba
00000100: 5a32 e5ba b476 863a d6b1 adba e416 9335
00000110: 1a1a 4d37 12ad 1637 6c9d dfba 3acd a33a
00000120: 5409 f1b3 40e7 a1ba bc03 62b9 da15 76ba
00000130: db43 143b 7a8e b8ba 6be3 21ba 34a4 dfba
00000140: ec2c 6d37 4043 3837 49c0 7cb3 11f1 9037
00000150: 0068 bbba 69cb b239 529c 9fba ccfa b5ba
00000160: 2052 9237 acb1 2cba 8f3d 0eba a77f a6ba
00000170: 6aab 37b3 88e6 7dba e99d 7337 a108 acba
00000180: 3b34 203a d513 8c33 0ed8 993a aeaa c3ba
7.0442297e-06 0.001032124 5.379563e-07 1.21947e-06 1.9795718e-06 -0.0008662861 -0.0012098145 0.00076909625
-2.1123785e-06 -4.961096e-08 0.00011263895 -1.0338256e-05 -0.0014924882 1.6535982e-05 -0.0013563193 1.3930839e-05
1.1586453e-05 -0.0015415997 1.2471194e-05 -0.0012743028 1.614553e-05 0.00064553204 1.3618432e-05 -0.0014375614
-0.0008852185 -0.00061229325 4.664458e-07 2.183401e-06 -0.0011685839 2.55254e-06 0.0007165119 -0.0015067926
-0.0002789263 1.4862294e-05 -0.0013750589 -0.0016323233 2.4851993e-06 -0.0016733715 -0.00046416855 -0.00095915806
-0.0010912885 9.764732e-06 -3.701896e-07 5.5723674e-05 9.103378e-06 1.4895957e-05 -0.00012759479 -0.0012159515
1.0200542e-05 -0.00015018955 -4.6647157e-05 0.00047516168 8.309591e-06 1.1070839e-05 -1.2383344e-06 -0.0011712954
-0.0014760649 0.0008935371 1.5340554e-05 8.7448865e-07 -0.0015998267 -0.001342234 -0.0015594581 -0.0012866026
-0.0017486319 0.0010258765 -0.0013251852 1.0959016e-06 1.2225029e-05 8.980993e-06 -0.0017060465 0.0012497075
-1.1224134e-07 -0.0012352243 -0.0002155443 -0.00093874114 0.0022623453 -0.0014080547 -0.00061755505 -0.0017062486
1.413676e-05 1.09829125e-05 -5.8848205e-08 1.7278393e-05 -0.0014297962 0.00034102358 -0.0012177324 -0.0013883947
1.7442799e-05 -0.00065877545 -0.0005426043 -0.0012702838 -4.2763908e-08 -0.0009685536 1.4520695e-05 -0.001312513
0.00061112986 6.5228654e-08 0.0011737363 -0.0014928186
